models/blur_model.pt (torch, 525953 bytes, 12 tensors)

encoder.0.weight f4 [16, 3, 5, 5]
00000000: 042a a03d 710c f8bd c903 3c3c 36cf f33c
00000010: 5f55 e53d e13d bd3d bc74 dbbd b284 6abd
00000020: 9621 943d 61ea 8c3c c846 ed3d 5d0f 0f3d
00000030: 70f2 7ebd 69e6 db3d c361 e0bd fc1f e13d
00000040: 41be 31bd 70a1 393d 2654 a63d 212d 23bd
00000050: 0956 6a3c f3a6 fc3a 94d6 ffbb dd62 7abd
00000060: 9455 07be 206d 21bd d61d 0b3d a0d2 e4bc
00000070: 58b8 033e c80d 213d eeaf bf3d 7394 083d
00000080: 9e6d f3bd 68a7 4abc 6f01 b7bd 846e a7ba
00000090: 7712 fb3d f0ed dc3d ea8f 23bd 1ce8 f7bc
000000a0: 5d4f d33d ad0e be3d 00a6 db3d 35d1 9abc
000000b0: f0fb e73d d506 f93c 280b 7fbd 086a cbbd
000000c0: 426c fa3b 0e22 9bbd cd9f acba 0158 d5bd
000000d0: c41e cc3c 8fbe 99bc 9b23 90bc 3571 60bd
000000e0: 4c0d 913c 8e84 04be cdca 40bd 2a21 3e3d
000000f0: 3f80 9bbd 6362 3e3d 7db9 6f3d 08a2 87bd
00000100: 7db5 62bd b06f e5bc c42a 59bd 3b69 03bd
00000110: a669 ec3d 8877 f5bc 94e3 bdbc 359f e3bd
00000120: d54c 80bd f578 eebc 3388 eebc 8330 a6bc
00000130: a5cb 74ba 2451 1bbd 62c4 b63d 4e76 19bd
00000140: 3a6b 333d b6d2 80bd 76a2 723c 0456 853c
00000150: bb6e ebbc ae52 653d 5eca 873b a40a a7bc
00000160: 7bd8 883c fd5e 883d 2567 c33d 4d1e fdbc
00000170: d2c8 963d 9f1d 0b3d ff5e 8f3d fc5a 093a
00000180: cb70 0c3d 0b76 c6bd 3a81 b7bd 783e b2bd
00000190: 175b 4fbd a6d1 b2bd c968 263d 81c8 813d
000001a0: 872c 07be 6367 afbd 1dbd a43d ab1c 943b
000001b0: f044 303d 8c0d 733d 720a e93c 575f 6fbd
000001c0: d228 e9bd 23ee ffbd 294f 6d3d 9e5d eabc
000001d0: a9ac b03c d7bf a63d e410 f7bb a427 acbd
000001e0: 1618 c93d 1fd1 7f3d 15d0 d53c 855a 0b3c
000001f0: de88 80bd 7171 b83d 4a89 303d 3030 673d
00000200: bc69 9bbd 199f c6bd fb2d 283c 2525 8dbc
00000210: 0ac4 b13d 1954 80bc 3c03 01bd 12e3 303b
00000220: 4eed f63d 7fb2 7ebd 6f30 c13d 9596 d43d
00000230: 169a d83d 68b3 533d 0a22 4cbd a7db c0bc
00000240: d3ca 4b3d 8a8f c33d f9c2 a93d 84b7 b3bd
00000250: d2a1 ccbb 6391 6fbd d81f c23d bc23 753d
00000260: 96a8 c6bd 3c11 ddbd 9f24 77bd cd56 f43d
00000270: 64f0 acbd f124 21be e721 ccbd 3615 0abd
00000280: e763 393e abfc d83b e7f2 8b3d 57a5 a3bd
00000290: a738 803d 3da4 96bd 7825 d6bb 51c3 143e
000002a0: 4910 5e3d f974 773d fbdc 1cbe 1303 213c
000002b0: 71cb e03c 84e3 ba3d dea4 56bd 13d8 833d
000002c0: b702 26bc 9299 7dbd 97f8 8dbd d57d b0bd
000002d0: a7e5 d2bc 835f 98bd 76b6 933c ea9a babd
000002e0: a48e 03be 8d13 be3d 4a0c abbc daea b9bb
000002f0: 0fea 5b3c f4ab 353d f539 5b3d 6ffe e03c
00000300: 8dd1 2f3e f81f 71bc 68f5 01bd 40e8 8bbc
00000310: de28 813d 875c 7a3c 6c39 853d 3452 37bd
00000320: 424e 35bd 27ac a6bd f9d9 d5bd 25dc 08be
00000330: 1110 c9bd ccba 253c 0e31 7dbd bdd8 11bd
00000340: cdb0 a1bd db96 89bd 2d98 eabc 4ca6 8b3d
00000350: 74fd 563d cb67 a83d 83ef 0a3d 8717 b5bc
00000360: 5c1b 943d 3ed3 df3d 57bf 3c3d fc6b 82bc
00000370: 2fe5 ccbd 6095 133b 83f6 f33d 435b 3d3d
00000380: 714f a8bb 75b4 35bd cc40 fdbd 3c66 7bbd
00000390: 6993 d7bd f3a8 0abd 824f 9e3d 6c93 d0bc
000003a0: 26dc 9fbd 76ae c63d 0637 2d3b cda1 173d
000003b0: 623d 013c 6e74 0b3d 4cee 1b3e c211 63bd
000003c0: 417b 6d3d c734 1b3e a3e5 923d 4867 6c3d
000003d0: 6a79 0ebd de4c b63d 10eb a0bc ebe6 c83d
000003e0: ba00 d73d 583b 0abe eaa7 ec3b ab6f be3c
000003f0: a5cc 733d dc1b d63d 6622 3d3c 4698 a1bd
0.07820514 -0.12111748 0.011475512 0.029761892 0.11197924 0.09240318 -0.10715625 -0.057255454
0.072329685 0.017201604 0.11585766 0.03492676 -0.062242925 0.107373066 -0.109561466 0.10992429
-0.04339433 0.045319974 0.08121519 -0.03983796 0.014302739 0.0019275829 -0.007807562 -0.06112944
-0.13216239 -0.03941071 0.033964 -0.027932465 0.1286329 0.039319783 0.09359728 0.033344697
-0.11886142 -0.012369014 -0.0893582 -0.0012774025 0.12259381 0.107875705 -0.03993217 -0.030262046
0.10317872 0.09280143 0.10725021 -0.018898586 0.1132735 0.030398766 -0.0622665 -0.09932333
0.0076423 -0.07574855 -0.0013170183 -0.10417176 0.024917014 -0.018767623 -0.017595103 -0.054795463
0.017706536 -0.1294119 -0.047068406 0.046418346 -0.075928204 0.046480548 0.058526505 -0.06622702
-0.055348862 -0.028007358 -0.0530193 -0.032082777 0.11543588 -0.029964224 -0.023179807 -0.11114351
-0.062646545 -0.029110411 -0.02911768 -0.020286804 -0.0009338207 -0.03791918 0.08924176 -0.03746634
0.04380343 -0.0629019 0.0148092415 0.016276367 -0.028739324 0.055987053 0.004143997 -0.020390816
0.016704788 0.066587426 0.09541158 -0.030898238 0.07362522 0.033963796 0.07000541 0.0005239693
0.034287255 -0.09690484 -0.08960195 -0.08703321 -0.05062398 -0.087313935 0.040627275 0.06337071
-0.1320058 -0.08564641 0.08043883 0.004520019 0.043034494 0.05933909 0.028447364 -0.058440533
-0.11384739 -0.12496593 0.05793682 -0.028609093 0.021566706 0.08142059 -0.0075398553 -0.08405998
0.09819047 0.062455293 0.026100198 0.008505468 -0.06276105 0.09006012 0.04309968 0.05644244
-0.075885266 -0.09698314 0.010264869 -0.017229626 0.086799696 -0.0156651 -0.031497225 0.0026990813
0.12056981 -0.062181946 0.09433066 0.10380284 0.105762646 0.051684767 -0.04983715 -0.023542238
0.049753975 0.09548862 0.08289141 -0.08775237 -0.0062448764 -0.05848826 0.0947873 0.059848532
-0.09700124 -0.10794303 -0.06033766 0.119306184 -0.084442884 -0.15736748 -0.09967404 -0.033711635
0.18104516 0.0066219172 0.06833439 -0.079905204 0.062608056 -0.07355545 -0.0065352283 0.14527632
0.05421475 0.06041429 -0.15318672 0.009827393 0.027440758 0.091254264 -0.052403323 0.06437697
-0.010132483 -0.061914034 -0.069321804 -0.086177506 -0.025744272 -0.074400924 0.01803134 -0.09111579
-0.12847382 0.09281073 -0.020879883 -0.0056737484 0.013422503 0.04435344 0.05352207 0.027465073
0.17169781 -0.014717095 -0.03172818 -0.017078519 0.06306623 0.015280849 0.06505093 -0.04475613
-0.044264086 -0.08138304 -0.104419656 -0.13365228 -0.098175175 0.010115337 -0.06181436 -0.03560709
-0.0789505 -0.067182265 -0.028637016 0.06818828 0.052487805 0.08222922 0.033919822 -0.022105945
0.07231781 0.10928963 0.046080913 -0.015920632 -0.10004651 0.0022519454 0.11912253 0.046229612
-0.0051364233 -0.04436155 -0.12365875 -0.061376795 -0.10526163 -0.03385253 0.07730009 -0.025460921
-0.07805662 0.097012445 0.0026430502 0.03701954 0.00788817 0.034046583 0.15227622 -0.055436857
0.057978872 0.15156852 0.07172706 0.057715684 -0.03478376 0.0890138 -0.019643337 0.09809669
0.104981855 -0.134992 0.0072221654 0.023246607 0.059521336 0.104545325 0.011543846 -0.07890372

encoder.0.bias f4 [16]
00000000: a548 eb3d f7f2 6abd d3e1 9ebd a938 fb3d
00000010: a3e3 eb3d 0dd0 8ebd 3201 7c3d f48d 2b3e
00000020: fc87 1a3c 2220 cabc beb3 a73c 478c 6fbd
00000030: 781c a53d 2fc8 c9bd 8889 873b cd2b 933d
0.11488465 -0.057360616 -0.07757916 0.122666664 0.11518028 -0.06973276 0.061524577 0.1675337
0.009431835 -0.024673525 0.02047145 -0.05848339 0.080620706 -0.09852635 0.004136268 0.07186089

encoder.2.weight f4 [32, 16, 5, 5]
00000000: 9b6b d93b 5232 02bd ccde 0ebd 1c62 7ebd
00000010: 6d3c 6bbd b6ea 233d 51d9 103d e08d b93c
00000020: db7b 983c f183 37bc b82c f13b ed90 7f3b
00000030: 039c a4bc d1f0 3d3b c633 bdbc 3627 06bd
00000040: 81c9 5bbd ee64 86bc 6a0c 03bc 4f99 18bd
00000050: eeb9 20bc fec5 02bd ac06 2bbd 5fe4 7fbd
00000060: 8c07 57bd 264a d2bb eaa0 00bd d9dc 41bd
00000070: 1af3 ce3c 1ff6 ca3c d630 073d ae82 14bd
00000080: 5947 103d 2394 44ba b771 283d a917 063d
00000090: 7fe8 b4bb c92a 5f3c 2bce 39bd b163 5f3c
000000a0: 903d 2dbd b3be cb3b 0110 b6bb 11ed 0f3d
000000b0: dbc3 3abd 7d9d f53c 9971 55bb b6e8 33bc
000000c0: 5abc 2e3c a161 07bc 7741 e53c 43ee dc3c
000000d0: e660 413d de58 cdba e8fe 6cbd 95ef b7bb
000000e0: 8273 ad3c b66f 05bc 46c7 4e3b 50b2 9ebd
000000f0: 6d8d 14bd e798 19bd 8d16 21bc 2e18 09bb
00000100: 1a65 05bd 9d9e 8ebd 96be c5bd 7480 66bd
00000110: 0e26 8abc c443 44bc 356f 1fbd f7f6 cdbd
00000120: 2a68 b5bd 6081 37bd 27e9 e83c fc04 28bd
00000130: 3f37 e43b 9358 343b 05bf 913c 87e2 44bd
00000140: f09e 83bd 504c 25bd a877 fa3b b489 86bd
00000150: 0b73 85bd d4d9 4dbc 94fa 16bc 5816 15bd
00000160: 7998 a9bb 2d51 82bd 0594 10bd 2e3c a3bd
00000170: 0ea9 dabc 6bd3 bebd 4289 85bd 4ed5 9b3c
00000180: a0b8 9abd e615 b9bc da0f b5bd 6e92 3dbd
00000190: c1d4 debc df8b 04bd 980c 79bc 0b66 6fbd
000001a0: ac9b 8c3b b4d8 89bd 508a 15bc 322e 6c3c
000001b0: 3a3f 2a3d 648a a6bb a091 42bc 733d a03b
000001c0: e3ca 21bd 8844 c9bc 660d 063d a277 7f3c
000001d0: 6ad7 7bbc 46f3 e8bc b520 213c bfbf 383c
000001e0: 5ac9 873d a3bc 5fbc c364 4cbd c5c8 9d3c
000001f0: 84b1 1f3c da13 c7bb 0aa8 56bb b471 f9bc
00000200: f9f7 093c e51c 7dbc 19ce cebc 0fe8 31bc
00000210: cc84 b1bc 5541 97bc 914f cbbc a4e5 15bd
00000220: 5c13 5b3c 16a3 eabc 3216 e23b 03b0 26bd
00000230: 0aed c13c b79b 443d e5d0 313d fcc6 3a3d
00000240: d10f aebc 451c d43c 4ece 403d 7fa2 e0bc
00000250: 7444 2e3d 29b1 283d 6c64 02bd 83ce edbb
00000260: ccdf f9bc 32f0 d73b 4a20 4bbd baae cbbc
00000270: a2cb 703c 643e 16bd bd25 65bd 1ee7 15bb
00000280: 74c1 1abd 91c0 403c 8470 a73c 389c b83b
00000290: 7a2b 133b 72a0 08bd ce30 b0ba fa38 c0bc
000002a0: c8c1 8bbb 3fdd 53bd f6dc 27bd 3748 97bb
000002b0: d395 e03a e453 1cbd 158b 553b f409 06bd
000002c0: 2d3f 543d 3f15 2b3d 1d57 923c e8b1 13bd
000002d0: 649b 503d 22ed bc3b 0ea7 483c 4cee 22bd
000002e0: 1084 acbb 4b51 4dbd daa2 2cbd e700 33bd
000002f0: 08e5 0fbd 1c7d c3bc f74b cebd df6e 22bd
00000300: 8984 a0bd dd1f bf3c 8e86 9b3d 537b 19bd
00000310: 8408 90bd 9848 cb3b 4dd6 a83c 6a1b b13d
00000320: a04d 97bc f1fb 12bd 9a2a 2abd 14d2 17bd
00000330: 5e16 3cbd c0f6 03bd 8a38 053d 4dbd 5f3c
00000340: 0226 e0bc e844 4bbc d732 00bd b4bf adbb
00000350: 8a5b 323c e8cd 9bbc 84ca dabc 0f82 c33c
00000360: 6620 1fbd dd61 b23c 2e8a 62bd e561 033c
00000370: 5fde dabc 5f18 293d 2d18 27bd 7c0c ffbc
00000380: ad90 953c 7ee1 4cbd c435 0f3c ce04 9bbc
00000390: cf9d cc3c b35d 3f3d 6c8f 41bd ede7 84bd
000003a0: d45e 82bd e0e2 2dbd 7277 403d 07f2 32bd
000003b0: de52 abbd 26ac c8bd 9968 43bd 6fc3 833d
000003c0: 2356 793c d29d 1dbd 4bcb 37bd 5156 8a3c
000003d0: a8c6 423d 3162 083c e7c2 663a 24c5 ab3c
000003e0: d441 01bd 669c f93c acef eebc 4f26 9d3c
000003f0: f9c6 203d 4f02 1e3d 2209 393b f851 51bc
0.006635142 -0.03178627 -0.034880444 -0.062105283 -0.057430673 0.04001876 0.0353635 0.02265066
0.018613746 -0.011200891 0.007360067 0.0038996295 -0.020093923 0.002898265 -0.023095977 -0.03275224
-0.053658966 -0.016405549 -0.007998565 -0.03725558 -0.009809954 -0.0319271 -0.04175441 -0.06247365
-0.05249743 -0.0064175306 -0.03140346 -0.047329757 0.025262404 0.024775563 0.033005558 -0.03625744
0.035224292 -0.0007498881 0.041124072 0.032737408 -0.0055208798 0.013621041 -0.045362633 0.013634608
-0.04229504 0.0062178015 -0.005556107 0.035138194 -0.04559694 0.029982323 -0.003256893 -0.010980776
0.010665024 -0.008263023 0.027985318 0.02696908 0.04721155 -0.0015666743 -0.057860285 -0.005613277
0.021173242 -0.00814431 0.0031551882 -0.07748854 -0.036267687 -0.037499335 -0.009832037 -0.0020918953
-0.03256712 -0.06963847 -0.09655492 -0.056274846 -0.016863849 -0.011979047 -0.038924415 -0.100568704
-0.08857758 -0.044801116 0.028431488 -0.04102038 0.0069645937 0.0027518615 0.01779128 -0.048067596
-0.06426799 -0.04035598 0.0076436587 -0.065692335 -0.06516083 -0.012564141 -0.009215016 -0.03639826
-0.005175647 -0.06363139 -0.035297412 -0.07970463 -0.02669194 -0.093176685 -0.065203205 0.01902261
-0.07554746 -0.02259345 -0.08840914 -0.046282224 -0.027201058 -0.032359954 -0.0152007565 -0.058446925
0.0042910185 -0.06730786 -0.009127215 0.014415311 0.041564204 -0.0050824154 -0.01187554 0.004890138
-0.03950013 -0.024568811 0.03272762 0.0155924875 -0.015371183 -0.028436314 0.009834458 0.011276185
0.06630202 -0.013655814 -0.04990078 0.019260773 0.009746913 -0.0060753645 -0.0032753968 -0.030449726
0.008420938 -0.0154487835 -0.02524476 -0.01085855 -0.021669768 -0.01846377 -0.024818214 -0.036595955
0.013371315 -0.028642219 0.0068996185 -0.0406952 0.0236726 0.048000064 0.043412108 0.045599923
-0.021247776 0.025892386 0.047071747 -0.027421234 0.04254575 0.041184578 -0.03183405 -0.007257284
-0.030502222 0.006589913 -0.04959134 -0.02486359 0.014696987 -0.036680594 -0.055944193 -0.0022873352
-0.037782148 0.011764661 0.020439394 0.005633857 0.0022456334 -0.033356138 -0.0013442279 -0.023464669
-0.004265044 -0.05172467 -0.04098221 -0.004616763 0.0017134495 -0.03816594 0.003258412 -0.032724336
0.05181806 0.04176831 0.017863804 -0.036058336 0.050929442 0.005765573 0.01224686 -0.03977804
-0.0052647665 -0.050126355 -0.042147495 -0.043702032 -0.03513053 -0.023863368 -0.10073083 -0.039656516
-0.07837779 0.023330623 0.07594024 -0.037471127 -0.07032874 0.006203722 0.02061 0.08647807
-0.018469632 -0.0358848 -0.041544534 -0.03706558 -0.04591977 -0.03221774 0.032524623 0.013655973
-0.027361874 -0.012406565 -0.031298485 -0.005302394 0.010886082 -0.019019082 -0.026707895 0.023865728
-0.038849257 0.02177518 -0.05530756 0.008018945 -0.026717363 0.041283008 -0.04079454 -0.031133883
0.018257463 -0.050019734 0.008740846 -0.01892319 0.024977593 0.046720218 -0.04725592 -0.06489549
-0.06365743 -0.042452693 0.046988912 -0.043687847 -0.08365415 -0.0979846 -0.047707174 0.064337604
0.0152182905 -0.038480587 -0.04487161 0.016886862 0.047552735 0.008324192 0.00088028464 0.020968027
-0.03155692 0.030470084 -0.029167019 0.019183306 0.039252255 0.03857642 0.0028234203 -0.0127758905

encoder.2.bias f4 [32]
00000000: b846 b53b dbe9 4f3d a294 653d 13c1 4fbd
00000010: d5ed ad3c 63bd 6bbb 0c84 caba c68e 693c
00000020: cb9a a4bc 5327 e4aa 0647 253d 8701 5abd
00000030: 67d5 a1bd ec4a 6bbd 07f3 ddbb aeb9 b73b
00000040: ffd4 2a3d 9b4b 25bd b3b0 f7bc a521 403c
00000050: fa85 56bd 1e1d 2abc 453b ff3b cc34 4fbc
00000060: a887 bcbc aca6 2ebd 7cee 953c f548 20bd
00000070: 3ddd 243b 60c0 65bb 75b5 a73d ae83 88bc
0.005532112 0.05076013 0.05604995 -0.05072124 0.021231571 -0.0035971038 -0.001545073 0.014255231
-0.020093342 -4.0528223e-13 0.040350936 -0.053224113 -0.079020314 -0.057444498 -0.006773356 0.0056068515
0.041707035 -0.040355306 -0.030235624 0.0117267715 -0.052373864 -0.010382919 0.007789048 -0.012646865
-0.023013905 -0.04263942 0.018302195 -0.039132077 0.0025156282 -0.0035057291 0.08188907 -0.016664352

encoder.4.weight f4 [64, 32, 5, 5]
00000000: dfb6 8600 9ade 1d00 1044 c800 9e44 c500
00000010: 8643 a700 2bc0 1e00 1d2a e600 eca2 0981
00000020: e027 6000 f178 a780 82c2 e800 d150 3500
00000030: 4882 6980 225e d780 2e98 0b01 ba14 7f80
00000040: 2c5f cc80 0032 2501 2f01 5480 5d2a 8700
00000050: 6bde 3681 8207 8301 9545 7201 7ab6 2781
00000060: 39df cb80 4400 7007 9166 f907 7ec1 bb07
00000070: 5f61 c788 371d a988 773b 4f07 b894 f687
00000080: d14f ad87 95d3 6a08 1780 0909 41f8 3f08
00000090: 2aa3 6109 4a89 6a0a 18f2 958a a186 fe0a
000000a0: 9b08 1f08 dc70 8c09 c99c 3f0b f5ed 300b
000000b0: 402b d58b 6cd9 2609 80b4 b009 94f0 928b
000000c0: f468 1a0c db0f d50b 424e bf88 bdaf 0388
000000d0: d457 9187 ee6a 8808 07df 0509 b45e 9608
000000e0: 3bbe e306 7af0 1089 9d7b c708 1845 1908
000000f0: cf85 cf87 5180 6589 ddb7 0989 1c4b cc09
00000100: 786d 6c09 370a 9007 2c06 2009 6cb2 168a
00000110: 8110 230a 26ff b989 6ba8 3508 c15f 028a
00000120: d16d 4f0a 75d4 7809 cd24 610a fc80 083a
00000130: 7c1c 583a 1f46 433a 5c67 083a 0fbd 6a3a
00000140: 90c9 eab9 2247 d639 e356 f538 ce1e 0f3a
00000150: 6203 88ba b2a1 9739 872c a239 4162 f8b9
00000160: 8464 f139 2298 263a 4d42 1eb9 12b0 7fba
00000170: 1cca 24ba 0f4e 0238 721a 4439 7d83 10ba
00000180: 7993 66b9 6b66 f3b9 2e62 40ba e372 ec39
00000190: 6734 0300 385f 0500 53f2 0a80 75f7 bb87
000001a0: 16a8 2e08 095d 0300 673d 0780 19a6 0d80
000001b0: 0d8f c007 cef8 b487 994a 0c00 7d8a 0700
000001c0: 5efd e987 e1a6 9189 0390 8e09 851b 0f80
000001d0: 6595 0b00 657d 3689 c696 f78a 5499 228b
000001e0: 9345 0080 210c 0280 4bf1 178a 8ecc 078b
000001f0: 08f4 200b 116b cc9e 8412 4520 a48f bb20
00000200: 29fa f520 e4ff a720 9dc3 2a20 4cb0 0022
00000210: 6fc0 3422 600c 7222 8934 6022 9240 d621
00000220: 62cf c922 fb55 8a23 0073 8923 b235 ba23
00000230: 4e48 1622 e3e5 4823 118b c223 865c 0924
00000240: 99fc 0f24 a1d6 6522 91df fc22 b5a6 6b23
00000250: 22e6 5323 543f 7623 a4d1 ff09 d672 6989
00000260: b8e4 a38a 522c b88a 1945 ad0a 6002 098a
00000270: a034 bc89 8f7d 9a0a 680c d78a 11ba 0c0b
00000280: 3169 898a 7196 048b 3d05 3d8b 631e a58b
00000290: 5ebc 930b 8b5b 0e0b 3ef5 800a 233d 370b
000002a0: 5bf2 eb8a 9e14 8009 8168 468b 58ce cc8b
000002b0: ff85 248c 93a0 c20b 4df2 010c 4fe6 0980
000002c0: 69d3 0000 c016 0d00 de70 0a80 c695 0500
000002d0: ba71 0880 f1a7 0880 9b46 0100 b599 0600
000002e0: c9a2 2380 52bf 0800 16a2 0b80 a058 0d00
000002f0: ff37 0b80 bfab 1187 d388 0a80 110f 0200
00000300: 055d 0e00 1899 a189 1991 600a 046f 0100
00000310: 7359 0d80 6842 0f80 c499 280a 60ee 7e0b
00000320: ec1f 9136 939b e635 a653 62b6 1f01 a335
00000330: c76e 3bb7 148f 1db7 2be7 b0b6 ba8a 4cb6
00000340: 3813 97b4 3498 b9b6 63c5 e6b6 a88e e7b6
00000350: 95f4 0f37 5d83 9a34 87f4 5eb7 9739 2436
00000360: ff3a 25b7 a6b9 21b6 8f69 99b5 a931 7935
00000370: 37ee bdb5 beaa f1b6 b636 c736 d115 1cb7
00000380: e57d 32b7 a0dd 0c80 8a9f 0c80 7b6c 1380
00000390: cc6e 0a00 1343 0700 4cf9 0e80 ebf7 0300
000003a0: c0ed 0c80 7a31 0880 08f1 1200 0a10 0900
000003b0: aa41 0680 bf45 0b00 9f6f 0780 fa9b 0d00
000003c0: 79b2 0680 8d54 1380 84da 0d80 2c22 0900
000003d0: d0eb 0100 7b3d 0c80 43c4 0f80 1ba2 0c00
000003e0: b93a 0b80 99d4 0800 7c68 0d29 678a b527
000003f0: 2879 5f27 9e66 daa6 c741 2b29 ce7e a926
1.2371558e-38 2.743084e-39 1.8391515e-38 1.8116208e-38 1.5360751e-38 2.824002e-39 2.1137272e-38 -2.5279817e-38
8.830512e-39 -1.5379913e-38 2.1375611e-38 4.896273e-39 -9.689463e-39 -1.97784e-38 2.5639452e-38 -1.1670543e-38
-1.8768582e-38 3.0341587e-38 -7.714606e-39 1.2412989e-38 -3.3587698e-38 4.8132573e-38 4.4498303e-38 -3.0803976e-38
-1.8722683e-38 1.8055671e-34 3.752564e-34 2.8250357e-34 -1.1999769e-33 -1.0178186e-33 1.5590424e-34 -3.7101375e-34
-2.6077059e-34 7.0665527e-34 1.6551003e-33 5.7768793e-34 2.716011e-33 1.12925114e-32 -1.4439244e-32 2.4509952e-32
4.785744e-34 3.3809906e-33 3.6903214e-32 3.4075386e-32 -8.210969e-32 2.0083754e-33 4.25402e-33 -5.6599136e-32
1.1895312e-31 8.206847e-32 -1.1513793e-33 -3.962796e-34 -2.1868796e-34 8.210341e-34 1.611416e-33 9.050061e-34
8.566743e-35 -1.7446441e-33 1.2005938e-33 4.612298e-34 -3.1224544e-34 -2.7625206e-33 -1.6577227e-33 4.9181846e-33
2.8458939e-33 2.1672716e-34 1.9262201e-33 -7.255795e-33 7.8512686e-33 -4.477707e-33 5.466568e-34 -6.2772816e-33
9.9873416e-33 2.9951811e-33 1.08402774e-32 0.00052072085 0.00082439906 0.00074491085 0.000520339 0.00089545635
-0.00044782134 0.0004087026 0.00011698694 0.00054596073 -0.0010376985 0.00028921437 0.00030932223 -0.0004737545
0.00046041992 0.0006355067 -0.00015092753 -0.00097537145 -0.000628622 3.1067113e-05 0.00018701868 -0.00055127573
-0.00021989447 -0.0004642488 -0.00073388487 0.00045099025 2.94305e-40 4.93336e-40 -1.005285e-39 -2.8282075e-34
5.2558804e-34 3.08881e-40 -6.64875e-40 -1.253446e-39 2.8973027e-34 -2.7229624e-34 1.128787e-39 6.92529e-40
-3.520686e-34 -3.5064412e-33 3.4320684e-33 -1.387405e-39 1.063783e-39 -2.1966413e-33 -2.384195e-32 -3.1315416e-32
-2.4959e-41 -1.88022e-40 -7.315768e-33 -2.6153944e-32 3.0998468e-32 -2.1643622e-20 1.6692675e-19 3.1774086e-19
4.1670157e-19 2.8460235e-19 1.4464283e-19 1.7440566e-18 2.4496422e-18 3.2803667e-18 3.0385473e-18 1.4518296e-18
5.4700734e-18 1.4998404e-17 1.4902274e-17 2.0188901e-17 2.0367069e-18 1.0890702e-17 2.1092419e-17 2.978551e-17
3.122214e-17 3.114891e-18 6.8541447e-18 1.2774677e-17 1.14870654e-17 1.3349097e-17 6.1586162e-33 -2.810035e-33
-1.5782363e-32 -1.7735227e-32 1.6685286e-32 -6.596757e-33 -4.5308842e-33 1.487689e-32 -2.0708414e-32 2.7103e-32
-1.3232189e-32 -2.5535455e-32 -3.6404017e-32 -6.360141e-32 5.6905764e-32 2.7417074e-32 1.2418202e-32 3.5290512e-32
-2.2720841e-32 3.0834267e-33 -3.8212033e-32 -7.8888413e-32 -1.2674423e-31 7.496769e-32 1.0010713e-31 -9.09139e-40
7.584e-41 1.202023e-39 -9.58844e-40 5.12906e-40 -7.75481e-40 -7.9493e-40 1.17164e-40 6.06153e-40
-3.272639e-39 8.03317e-40 -1.068336e-39 1.225654e-39 -1.030278e-39 -1.0959059e-34 -9.67438e-40 1.89076e-40
1.319066e-39 -3.890331e-33 1.08124975e-32 1.3166e-40 -1.22595e-39 -1.401355e-39 8.117826e-33 4.9097954e-32
4.325053e-06 1.7181613e-06 -3.3725314e-06 1.2144773e-06 -1.1171861e-05 -9.391242e-06 -5.2721202e-06 -3.0479118e-06
-2.8139925e-07 -5.5311484e-06 -6.877513e-06 -6.900944e-06 8.58041e-06 2.8780315e-07 -1.3289165e-05 2.4471426e-06
-9.8485025e-06 -2.409893e-06 -1.143011e-06 9.2831993e-07 -1.4150927e-06 -7.2022367e-06 5.9370313e-06 -9.303404e-06
-1.0638939e-05 -1.18153e-39 -1.159258e-39 -1.78379e-39 9.58101e-40 6.6691e-40 -1.375128e-39 3.64443e-40
-1.187315e-39 -7.52433e-40 1.739505e-39 8.32273e-40 -5.74569e-40 1.03521e-39 -6.8289e-40 1.249815e-39
-6.15037e-40 -1.775206e-39 -1.27225e-39 8.38778e-40 1.76429e-40 -1.124081e-39 -1.447938e-39 1.160178e-39
-1.031256e-39 8.1095e-40 3.1398915e-14 5.038765e-15 3.1013146e-15 -1.5154603e-15 3.802668e-14 1.1761101e-15

encoder.4.bias f4 [64]
00000000: 509e 65bc a71f 83bb b09f 58bc 4795 2a3c
00000010: e40b 0c3d 568c dd3d e81d 1dbc 8204 073c
00000020: 88c7 91bc e8cf d93c 4070 d4bb 11df 5bb9
00000030: 3656 153d 258a cfbb c456 843b e133 18bd
00000040: 5191 bbbc 5931 88bc 9a08 20bd c511 333d
00000050: 7e18 eabc 9fbc 52ba 91f8 8bbd 753c efba
00000060: c6f8 023c 5cd8 9cbc 9f7a 2c3c 313f babc
00000070: bfd2 6a3c b639 123d 3b76 b1bc f091 0cba
00000080: 1a19 013c bbc7 38bc 9e5f 043d f1d1 fd3c
00000090: 4aa5 e63c c925 14bd 22fa b83c bcb0 a53c
000000a0: 91dd ceb5 a6d9 72bb ae57 7cb2 1372 bf3c
000000b0: 6d97 593c a15d d13c 592f c8bc 8db3 8f3c
000000c0: c493 4fba bba3 fd3b da0c c93d 3ec9 2d3d
000000d0: 2442 74bd 26ba 31bb fe3f 39bd 4bad e23c
000000e0: 0af7 9fbc 9175 3e3d 769b 553c d3e7 f5bc
000000f0: 928c 333d ee24 39bc 292c 5bb9 3c78 56a9
-0.014014795 -0.004001576 -0.013221666 0.010411567 0.034191027 0.108177826 -0.00958965 0.008240821
-0.01779534 0.026588395 -0.006483108 -0.00020968566 0.03645917 -0.006333607 0.0040386636 -0.03715885
-0.02289644 -0.016625093 -0.039070703 0.04371812 -0.028576132 -0.0008038971 -0.0683452 -0.001825227
0.0079938825 -0.019146137 0.010527282 -0.02273521 0.014332472 0.03569957 -0.021662822 -0.00053623226
0.00787952 -0.011278088 0.03231775 0.030983897 0.028154988 -0.036168847 0.02258021 0.020225875
-1.541268e-06 -0.0037055998 -1.4688267e-08 0.023369825 0.013280732 0.025557341 -0.02443664 0.017541671
-0.0007918442 0.0077404655 0.09816904 0.042428248 -0.05963339 -0.002711901 -0.045227043 0.027670523
-0.019526977 0.04649884 0.013037553 -0.030017769 0.04383523 -0.011300309 -0.00020901918 -4.7621832e-14

decoder.0.weight f4 [64, 32, 5, 5]
00000000: 2536 01b1 9d58 fab0 6baa 8d30 f6e3 1f30
00000010: 2ec5 14b0 6db7 d8af 2bf1 af2f 53bd 8030
00000020: 9476 02b1 5d8c 4db0 a0dc 3cb1 20aa e130
00000030: 73c6 67b0 c46d a02f bb55 0bb1 fec7 c8b0
00000040: bef0 25b1 71b9 41b1 79ae 0331 d284 cfb0
00000050: 5a3b 802f 3b41 69b1 09fd 8731 a615 8b31
00000060: a8b0 55b1 11b2 0180 e1d6 0180 1464 1280
00000070: b64e 0d00 655d 0100 962b 0280 a89e 0b80
00000080: f03e 1700 be5b 0680 4c73 1280 e97a 0680
00000090: 6ec8 0080 8553 1600 f6e5 0e00 90e3 0a00
000000a0: da92 0200 2d21 0880 f7ac 0e00 d58e 0200
000000b0: 6662 0a00 8aff 0880 cef3 0600 bb51 0c80
000000c0: 79f3 0980 9e8b 0b00 f239 0280 8df2 0480
000000d0: 12a1 0600 4ad0 0480 4f9b 0080 efc3 0700
000000e0: d93d 0800 bb1e 0000 dde3 0880 5b0e 0900
000000f0: 4b3a 0a80 cbcd 0a80 05e2 0a80 f9ae 0500
00000100: 2cfe 0400 1eef 0b00 259b 0300 b4a7 0900
00000110: 71f5 0800 e774 0800 e747 0080 4143 0880
00000120: 612f 0a00 fac7 0200 6efa 0700 a55e 0a3a
00000130: 6474 11bb fc5c 6f3a c932 ddba b95a 9e3a
00000140: 22ac 193a 279c d9ba 661d 3fb9 48e3 73bb
00000150: 5475 dbb9 2cc6 36bb daaa 2b3b d496 f43a
00000160: 9fdb 48bb d755 05bb 2c68 de3a 47dd e9b9
00000170: 49b1 88ba 86dc 59bb ef5d fb3a d49c 3e3a
00000180: 6166 91ba 0da1 d03a 4058 ea3a c5c6 c1b8
00000190: a124 0000 e025 0080 51ab 0900 76a6 0200
000001a0: ee65 4b09 c765 0800 0d98 0780 a10a 0080
000001b0: d948 0880 57c0 1589 a23f 0800 bd0a 0800
000001c0: e681 0480 353e 3608 6383 5509 334f 0800
000001d0: ca55 0300 e4b9 0300 aa29 f189 951f aa08
000001e0: d8e4 0580 5ab7 0500 65f4 0580 e70a bc88
000001f0: 0c18 6689 e705 3385 9d11 0f87 ff38 0987
00000200: 1f2b 9607 4a80 1487 b51b 8306 4237 bb86
00000210: e94b 0f87 87d6 5e86 d9a7 a309 1428 ef85
00000220: 690c 0987 40d2 1b05 2518 6f08 bac7 d388
00000230: 4f43 c786 590d 8588 65a0 4009 abfa 4789
00000240: 24ac 2a09 e122 210a 0e73 f088 ce39 8287
00000250: 44c8 e988 2c2a 9988 1d06 20bb f22f 9abb
00000260: 394e 64b9 ef98 18bb 0c88 06bb da37 8e36
00000270: e776 c639 8611 0ebb 4985 363a 02aa 41ba
00000280: dfa1 5fbb caf0 7d3a dea9 993a 9069 c9ba
00000290: f8c8 633b 07ee 0dbb 9b45 fe38 97e5 883a
000002a0: 5a8e 69b9 7ea4 ef39 f457 6ebb 1bb0 de3a
000002b0: 96d2 92ba 4439 333b 2abc 5dbb 464f 5538
000002c0: 98e8 5ab7 c17a 59b8 14a7 4b37 e8da 7fb7
000002d0: b40a 1437 18e5 a737 f1fb bbb5 55c7 e737
000002e0: 47e4 a1b7 a450 2ab8 6eb3 d7b7 7c89 52b7
000002f0: b771 4e37 f96a d8b7 905a f137 342a 6637
00000300: 6bd7 97b7 96b5 6737 59a5 44b7 d2ef 2ab8
00000310: f92c ba37 62bb 8eb7 e3e9 7237 c0c8 6c37
00000320: 53cd 1400 8bb7 0e00 416f 0600 cef0 0c80
00000330: ff00 0f80 86e0 1080 9f9e 0880 1fa6 0e00
00000340: f97a 0000 78bd 1d8a 23f4 0f80 78ba 1400
00000350: b2e5 0280 bd9b 0d80 8469 d109 bda0 0e80
00000360: 340b 0d00 1427 0680 f1a7 0380 29ff 0780
00000370: ed4e 1b80 641f 1400 1e77 0e00 2821 2000
00000380: fa7a 1380 1036 4b30 d88f 1eb0 de78 e7b0
00000390: 69b7 8ab0 5670 27b1 47e9 2a32 628a 9db2
000003a0: d309 2ab2 c1af 0232 1e09 ccb2 3e04 97b3
000003b0: 8de6 2833 347b dc31 0a79 a732 0ee9 2cb3
000003c0: deb2 1bb3 8320 4d32 ec28 d8af 586e 80b3
000003d0: f343 6f33 94a2 32b3 ee94 e432 83da c032
000003e0: 4328 1d33 86f5 b632 df30 fd89 ea88 3b07
000003f0: 6364 8888 7dd6 438a 7924 d20a 8341 b08a
-1.8802748e-09 -1.8215079e-09 1.0307536e-09 5.8167815e-10 -5.4122296e-10 -3.9420503e-10 3.2003675e-10 9.367035e-10
-1.8984894e-09 -7.4778034e-10 -2.7483011e-09 1.6419257e-09 -8.4319324e-10 2.9181824e-10 -2.0275894e-09 -1.4608756e-09
-2.4147506e-09 -2.8190608e-09 1.9162185e-09 -1.5098982e-09 2.3325236e-10 -3.3943042e-09 3.957784e-09 4.0478936e-09
-3.1095997e-09 -1.55714e-40 -1.6892e-40 -1.68894e-39 1.222098e-39 1.25339e-40 -1.99307e-40 -1.067106e-39
2.134794e-39 -5.83924e-40 -1.6944e-39 -5.95105e-40 -7.19e-41 2.050342e-39 1.368191e-39 9.99989e-40
2.36351e-40 -7.46585e-40 1.347745e-39 2.3491e-40 9.53654e-40 -8.26354e-40 6.38474e-40 -1.131345e-39
-9.13861e-40 1.060276e-39 -2.04458e-40 -4.54353e-40 6.08794e-40 -4.42062e-40 -5.5714e-41 7.13136e-40
7.56871e-40 1.1024e-41 -8.16426e-40 8.31669e-40 -9.39267e-40 -9.9218e-40 -9.99435e-40 5.21946e-40
4.58522e-40 1.09597e-39 3.31162e-40 8.8668e-40 8.22732e-40 7.7662e-40 -2.5794e-41 -7.5881e-40
9.35351e-40 2.55409e-40 7.32686e-40 0.00052783854 -0.0022194618 0.0009130982 -0.0016876097 0.0012081481
0.00058621366 -0.0016602323 -0.00018226131 -0.0037214328 -0.0004185835 -0.0027889116 0.0026194365 0.0018660673
-0.0030648482 -0.0020345354 0.0016968301 -0.00044606088 -0.0010428812 -0.0033243014 0.0019177775 0.0007271294
-0.0011093133 0.0015917137 0.0017879084 -9.239981e-05 1.314e-41 -1.3587e-41 8.87976e-40 2.43386e-40
2.4483163e-33 7.71195e-40 -6.97394e-40 -3.813e-42 -7.60817e-40 -1.802566e-33 7.57511e-40 7.38536e-40
-4.13941e-40 5.4841757e-34 2.570072e-33 7.63095e-40 3.06282e-40 3.42191e-40 -5.805782e-33 1.0238928e-33
-5.41271e-40 5.24952e-40 -5.4685e-40 -1.1317402e-33 -2.769655e-33 -8.4176236e-36 -1.07633e-34 -1.0323484e-34
2.2594836e-34 -1.1171983e-34 4.9317435e-35 -7.0422776e-35 -1.0780432e-34 -4.191117e-35 3.9398666e-33 -2.2490174e-35
-1.0310381e-34 7.326682e-36 7.194983e-34 -1.2746056e-33 -7.495438e-35 -8.007784e-34 2.3186576e-33 -2.4071617e-33
2.0543946e-33 7.758428e-33 -1.4471524e-33 -1.95942e-34 -1.407026e-33 -9.218267e-34 -0.0024417706 -0.0047054226
-0.00021772915 -0.0023284515 -0.0020527868 4.2384318e-06 0.00037854092 -0.0021677925 0.000696261 -0.0007387699
-0.0034123582 0.00096870644 0.0011723598 -0.0015366543 0.0034757238 -0.0021656768 0.00012124629 0.00104444
-0.00022273642 0.0004570819 -0.0036368342 0.0016989739 -0.0011201676 0.0027347365 -0.0033834078 5.0856986e-05
-1.30479675e-05 -5.1851155e-05 1.2138644e-05 -1.52501525e-05 8.823979e-06 2.0014631e-05 -1.400591e-06 2.7630167e-05
-1.9298996e-05 -4.060626e-05 -2.571355e-05 -1.2548986e-05 1.2305033e-05 -2.579902e-05 2.877161e-05 1.37188945e-05
-1.8100915e-05 1.3810952e-05 -1.1721008e-05 -4.075451e-05 2.219387e-05 -1.7014976e-05 1.447878e-05 1.4113437e-05
1.910366e-39 1.35154e-39 5.90923e-40 -1.18841e-39 -1.37789e-39 -1.549912e-39 -7.91586e-40 1.34529e-39
4.4114e-41 -7.59491e-33 -1.465112e-39 1.903602e-39 -2.6607e-40 -1.24973e-39 5.0414146e-33 -1.343359e-39
1.19788e-39 -5.65032e-40 -3.35753e-40 -7.34383e-40 -2.507872e-39 1.847971e-39 1.328428e-39 2.95063e-39
-1.78899e-39 7.3927797e-10 -5.768448e-10 -1.6841815e-09 -1.009295e-09 -2.4365554e-09 9.9483435e-09 -1.8340135e-08
-9.897536e-09 7.606958e-09 -2.3752872e-08 -7.032257e-08 3.9325233e-08 6.4168493e-09 1.9496401e-08 -4.0258833e-08
-3.625143e-08 1.1939963e-08 -3.9319248e-10 -5.980536e-08 5.5708323e-08 -4.159172e-08 2.6610419e-08 2.245111e-08
3.659103e-08 2.129924e-08 -6.0953493e-33 1.4108552e-34 -8.208803e-34 -9.429249e-33 2.0235984e-32 -1.6972826e-32

decoder.0.bias f4 [32]
00000000: 9d11 1a3c 05f0 07bd a027 9bbc e04d e33d
00000010: 62f0 673c 3901 0ebb a98a 583c e203 2c3d
00000020: 7d79 503d 06cf 6b3d c3b0 203c 355b 823d
00000030: 2e00 813b 7c54 c93c d2e8 da3c 4621 1bbc
00000040: 4e04 bcbc 1792 fa3c a98e 3c3d c73e 583d
00000050: 31b2 273d b1bb 113d 7236 ad3d e13e a73c
00000060: 7e71 96bc f61f 33bc af0b 093d 9702 9e3c
00000070: 48e4 a93c 489b 683d 416d b83c a0eb 0fbc
0.009403613 -0.033187885 -0.018939793 0.11098838 0.014156433 -0.002166821 0.013216653 0.04199589
0.05089711 0.05757048 0.009807768 0.063650526 0.003936789 0.024576418 0.026722346 -0.009468382
-0.022951271 0.03058724 0.04603449 0.052794244 0.04094142 0.035579387 0.0845765 0.020415725
-0.018364664 -0.010932913 0.033458408 0.019288344 0.020738736 0.056788713 0.022513034 -0.008784205

decoder.2.weight f4 [32, 16, 5, 5]
00000000: 8806 1fbd e93a a63c 1a82 a93c b8bc bdbc
00000010: 2ace c2bd 4d4e 9ebb f96c 113c d3e4 283c
00000020: 38a7 3abc 95d8 15bd ea19 eabb 33a8 0b3c
00000030: 2796 193d ea49 473b 6362 38bb c32e 48bd
00000040: 7d3f a5bc 987a a0bc 2bea 1e3a aa81 1ebd
00000050: 2312 87bd 315f b9bc ebed eebc 41c7 523c
00000060: 8fe4 81bd f8c2 753d 78e8 063d 8be9 bb3c
00000070: 7836 2c3d 6431 48bb c70e 053d 25bb 083d
00000080: fde6 4d3a 5444 953c d9e9 a0bc 4adb 143d
00000090: 34f5 143c 837a cc3b fdcf eb3c a634 9d3c
000000a0: 441c 273d 59c5 ca3c 6f1a d03c f833 a93c
000000b0: 791b c9bc 7bed a93d a0c1 d93c df04 e63c
000000c0: 9320 303b daca c4bc 8fd1 1b3e fe13 003d
000000d0: 8963 083d 06b8 f23d d67d 8a3e 512c fdb9
000000e0: 400e 12bd dae2 1cbd 348c 8bbc f337 0d3e
000000f0: a5a0 af3b 4c94 0abc a351 04bd 2835 2dbd
00000100: dd3d 143e cc7a 6dbc beb3 98bc 729f 1ebd
00000110: 130f 18bd 238f 403e c587 bfbd f15c 90bd
00000120: d308 0fbd 8427 413d 1e72 a13e 2070 8c3d
00000130: d320 6a3d ad21 803c b280 d43a cc3a f33c
00000140: 6fee 8e3c 7345 b93c a79c 333c c31c 053c
00000150: 6dee 483d 0166 633d 4162 843d 8d45 903c
00000160: 3afe 333d bd3d 433d ca22 413d 1781 c63d
00000170: 485a 193d ed47 563d ab90 763d db90 903d
00000180: 0227 a43d c58a 623d 24a5 2a3d 7c08 583d
00000190: bc48 bcbc 45d8 9a3c 0b47 3e3d 7365 b43c
000001a0: 5535 0f3d 75cb 0abd 3e1a bebc aaa0 8cbb
000001b0: 8d18 25bd 85f1 a1bc 1b75 b5bc ee27 b4b8
000001c0: 930a 2cbc 993a 79bc 38ef 8abc 3920 29bd
000001d0: b1f7 0dbc 942c c7bc be76 1dbd 3374 ecbb
000001e0: 2d39 823a f306 96ba 4882 143d f6b5 ce3c
000001f0: 9db5 b83c 08dc ab3c 2071 ccbb 41c9 063c
00000200: 8667 9b3b e589 0a3d 3eea 773c a89d 6dbc
00000210: ed92 683a a8b7 833b 143c 093c 32cc ed3c
00000220: de8d ac3b 9cd3 b23c 2596 a93c 04cf 5d3c
00000230: d37c 8b3a ab54 fbbb ed33 4b3b f5f9 3c3c
00000240: 54e0 063c e82d 0d3d 616d e83c a661 f53c
00000250: 77bf 8f3c 3e70 80bc 5c33 74bd fd01 a1bc
00000260: 7049 88bc 75a4 563c 1f6f 8c3d 7d2f 3f3c
00000270: c5d4 e83c f6ef 29bc 419a b3bc 72cf d23c
00000280: 5fd3 833d e395 003d d400 c43b a3f8 85bc
00000290: 509d 933c a51f 963b 2f93 343d 4108 03bd
000002a0: abb7 16bc c787 973d fee5 4b3d 7381 693d
000002b0: aaa4 053d 407b 153d b5ba 2e3e 516f 803c
000002c0: 5aec 2e3b 083c a83a 6f47 ceba 6c86 f83b
000002d0: e931 6a3d 76cf 2b3d 389d 193d 71eb f03c
000002e0: ff6f 443d 4922 cebc 0c5d 0bbb 6bc6 493c
000002f0: 263b 343c 575c d63c b8dd d3bb 0660 993c
00000300: 52b4 153d 9cab 153d 7107 513d 5942 debc
00000310: 7d56 20bd ff44 44bd b914 25bd d1a4 a2bc
00000320: 010b f43b c185 003d cf03 5e3d 20ff 983d
00000330: 604d a63d 9893 9b3a 9d6b d9ba 9827 1a3b
00000340: c7d1 483c 38ae bb3c cbf7 31bd 620b 0cbd
00000350: dae4 c8bc 4b53 3abc 6985 e6ba b097 82bd
00000360: ec02 8fbd c6b7 85bd 6be9 5bbd 072e 25bd
00000370: f1c6 b0bc d6ce debc 6dfc afbb fca8 70ba
00000380: c0ab cbbc 5aa2 06bc 7410 d7bc 595b cebc
00000390: c709 6dbb ca1c 973a 941e 623c c7b5 94ba
000003a0: bc82 88bc e67b 9d3c a4f4 ab3c 0a62 4e3c
000003b0: 37f6 5ebc be20 06bd cb78 e63b afbc af3c
000003c0: 8832 023d 3436 81bc a964 23bc f3aa 673b
000003d0: 019c 403c 66e5 f5bb fe0f 0cbd deab 26bd
000003e0: 467f b13c bd34 353d d8fd 0e3e 9778 36bd
000003f0: 330d 47bd c70a 3fbd b931 8fbd 1656 c53c
-0.038824588 0.020291762 0.02069192 -0.023161277 -0.09511979 -0.0048311115 0.008876079 0.010308462
-0.011392407 -0.0365835 -0.0071442025 0.008523989 0.037496712 0.0030409046 -0.0028134815 -0.04887272
-0.020171875 -0.019589707 0.00060621154 -0.038697876 -0.06595256 -0.022628399 -0.029166183 0.012864889
-0.06342422 0.06000039 0.032936543 0.02293851 0.042044133 -0.0030547017 0.032484796 0.0333816
0.00078545493 0.018221058 -0.019642757 0.036341943 0.009091664 0.0062401905 0.0287857 0.019190144
0.04079844 0.024752306 0.02540323 0.020654663 -0.024549233 0.08297249 0.026581585 0.028078495
0.0026874884 -0.024022508 0.15216659 0.031269066 0.03329805 0.11851506 0.2704913 -0.0004828894
-0.03565812 -0.03830228 -0.017034627 0.13790874 0.0053597265 -0.008458208 -0.032304417 -0.042287022
0.14476724 -0.014494609 -0.018640395 -0.038726278 -0.03712375 0.18804602 -0.09352068 -0.07048977
-0.034920525 0.047156826 0.31532377 0.06857324 0.05716021 0.015641058 0.0016212671 0.029691122
0.017447678 0.022616124 0.010962642 0.008124533 0.049055506 0.0555172 0.06464053 0.01761129
0.04394362 0.0476663 0.047152318 0.09692591 0.037439615 0.052314688 0.06019656 0.07058879
0.08015253 0.055308122 0.041661397 0.052742466 -0.022983901 0.018901953 0.04645447 0.022021031
0.03496297 -0.033885438 -0.023205873 -0.0042916136 -0.040306617 -0.019768486 -0.022150567 -8.590506e-05
-0.010500568 -0.015211725 -0.016959772 -0.041290496 -0.008665011 -0.024313249 -0.03844332 -0.0072160005
0.0009935253 -0.0011446163 0.03625706 0.02523325 0.022547537 0.020978943 -0.0062390715 0.008226694
0.0047425656 0.033822913 0.015131531 -0.01450292 0.00088719913 0.0040196963 0.00837614 0.029028032
0.0052659353 0.021829419 0.020701477 0.013538126 0.0010642059 -0.0076700053 0.0031006292 0.011534204
0.008232195 0.034467608 0.028372468 0.029953789 0.017547352 -0.015678521 -0.059619293 -0.019654268
-0.01663658 0.013100733 0.06857132 0.011669037 0.028421769 -0.010372153 -0.02192414 0.025733683
0.064368 0.031392943 0.005981544 -0.01635391 0.018019348 0.004581409 0.044085678 -0.031990293
-0.009199063 0.07398944 0.049779885 0.057008218 0.03262774 0.036494493 0.1706341 0.01567808
0.002669117 0.0012835274 -0.0015737842 0.0075843837 0.057176504 0.041945897 0.03750345 0.029409142
0.04795837 -0.025162833 -0.0021265177 0.012315373 0.01100043 0.026167078 -0.00646564 0.018722545
0.03654892 0.036540613 0.051032487 -0.027131246 -0.03914498 -0.047917362 -0.040302966 -0.019853981
0.007447601 0.031377558 0.05420285 0.07470536 0.08120227 0.0011869548 -0.0016587857 0.0023522135
0.012257046 0.022910222 -0.043449204 -0.034190543 -0.024523187 -0.011372398 -0.0017587367 -0.06376588
-0.06982979 -0.065291926 -0.0536894 -0.0403271 -0.021579238 -0.027198236 -0.0053706677 -0.0009180454
-0.02486217 -0.008217419 -0.026252963 -0.025190042 -0.0036169158 0.0011528966 0.013801236 -0.0011345678
-0.016663902 0.019224118 0.020990677 0.0125966165 -0.013608507 -0.03274607 0.0070334426 0.021452276
0.03178647 -0.015772916 -0.00997273 0.0035349696 0.011755944 -0.007504153 -0.03419494 -0.04069125
0.021667134 0.04423975 0.13964021 -0.044548597 -0.048596572 -0.046641137 -0.06991906 0.0240889

decoder.2.bias f4 [16]
00000000: 0eec 5e3d 8115 023d 1425 843d fdd6 413d
00000010: d865 ab3b 176d 8fbc 1e2a f4bc 4203 133c
00000020: b366 653c 62fb 9d3d 1ff3 853d 3cfb 573d
00000030: 96ad 45ba c9b0 ad3c 4b65 50bc ef10 4d3d
0.054424338 0.03175879 0.064523846 0.04732417 0.0052306466 -0.017508073 -0.02980524 0.008972945
0.014001536 0.07713963 0.06540512 0.05272983 -0.000754082 0.021202462 -0.012719463 0.050064977

decoder.4.weight f4 [16, 3, 5, 5]
00000000: 2d3c d6bd 7203 f6bd d37a abbd e2d8 01be
00000010: f141 13ba 3e9d 01be 2ee9 5a3d 9460 d13b
00000020: 9ad5 90bd 8131 12be 3030 eebc 238b 753d
00000030: f6fe 8dbc a5b5 90bb 2075 b2bd 1833 11bd
00000040: f021 63bd af35 24bd 4451 82bc ecf4 d13c
00000050: a8ba 1dbd 89a9 dc3c 50e5 a8bc 4078 aebd
00000060: edd9 0a3a ac9d 8cbd d606 e2bd 79f9 b0bd
00000070: 48a6 a0bc ab9b d1bd afea cbbc 70b8 123a
00000080: 1106 25bd 5a54 5dbb b195 bdbd 72e0 91bd
00000090: 78f4 1a3d cf43 2cbd 1b35 283a 17ce 20bd
000000a0: e96a 2abd bf46 133d eff1 3e3c 14c3 133d
000000b0: 36d4 4dbd bf4e a7bd b586 843d b2a5 09bd
000000c0: e9ed 68bd 8571 0ebd 2d5d 19bd 3ffa 50bd
000000d0: 4485 e3bc a12e 2bbd cd92 4cbc 8e56 393c
000000e0: 3ac1 f0ba 2f1d 67bd 4778 9d3c 5a0b a9bc
000000f0: cfa9 4fbd 2fce 9b3c 1fab 8c3c 039f 42bd
00000100: 8038 cdbc 281c 883b 4b0b a33c 0ad6 ac3c
00000110: e287 aa3b 0cdb a3bc 62e7 6a3b 39e8 973d
00000120: 47b8 a9bc e899 57bb f7a3 e13c a9f3 893c
00000130: 0a78 203d b261 313d 7948 4c3d c276 96bd
00000140: c7d0 e63b f9f9 203d ae86 dabb 8f09 c3bb
00000150: 5879 fbbc ae09 563c fc16 b2bb 7658 573d
00000160: e4e4 4f3d cf40 e7bd 0689 4abd 649f a5bb
00000170: 8d68 513c 41bb c33d 12b8 043d ede7 933d
00000180: 515c e2bd 5821 a13d ace2 2eba 0f92 2ebd
00000190: a8c7 28bb 7f6a ccbd fa20 7ebc dd75 a73d
000001a0: b6cd 5b3d c3fc 423d be6f 703d 44fd 15bd
000001b0: 80fc 10bb a1af 353c 849b 823d e962 063c
000001c0: 36d7 3ebd 9be1 82bd a062 46bc 57ef 5c3d
000001d0: 448f 9a3b 9a8e ba3d 8e43 ef3d db28 7e3c
000001e0: f8ed cdbd 301f 353c 4b43 ea3c f549 f13d
000001f0: 3849 52bd 353a 893d 0a0d 3fbb 227d bfbd
00000200: 72c5 fc3d 60cf c9bd 078f e53d 1c00 d43c
00000210: 54cb adbd d08c b0bc 8cca 3a3d 550a 383d
00000220: d2d9 c73d 5edf 15bd cbbf bfbd f3b8 1dbb
00000230: ff63 6c3d 2088 e8bd c02d 53bd bdba e83d
00000240: 7483 d43d 9900 76bd 6f9c c93d 8959 b03d
00000250: 731a a73d 4d7e bbbd 2cfc 4d3e 908c 4d3e
00000260: 4de1 143e b5ae 4b3e a1bb c93e d33c 013e
00000270: e9a0 783d a46d e63c 9aec f63d 8350 673e
00000280: d7e7 8d3d c7c3 aa3c 09d1 443d 9124 8c3d
00000290: 8b6d 463e 0794 6abd b4a1 1b3c 7a28 073d
000002a0: 73af 4b3d b13d ea3d 60ef 01bd 9a1b 91bc
000002b0: 4673 263d 53a9 163d 6932 4f3e 6b18 423e
000002c0: 4976 c53d 8d34 3a3e 96ad 6e3e a901 8e3e
000002d0: 6c25 933d c655 813d ca4c 4c3d 1f49 f03d
000002e0: e631 6d3e db49 4a3d aa18 433d dda6 743d
000002f0: a1cb b5bc d7db 4c3e 4bed 4dbd 527b 5f3c
00000300: 2993 543d 3885 8f3d 36a8 fd3d 1c4f 13bd
00000310: 5ab6 7fbc b708 fa3c 75d3 683d 3667 423e
00000320: 4a88 0a3e 6f0d 2a3e 6f03 b93d 4623 333e
00000330: f4d5 ab3e d30c 873d c183 373d 86f4 863d
00000340: d406 bc3d 9ae0 733e a199 7f3c e3cf 0e3c
00000350: 2540 ae3d b64f 943c 0603 9c3d 79c8 52bd
00000360: aa26 b03c 94ac 29bb 5a45 993d 47c0 d93d
00000370: d7e4 f4bc c3a6 333d c5fc 023d 8cd9 983d
00000380: 9bbb 3d3e 7fba ebbc 7bbd 10bd 2dc3 ec3d
00000390: 5c85 d13c b643 cc3d ab12 5a3d 3a78 ecbc
000003a0: d36f efba 6e15 a53c 3d7e c3bd bef6 163c
000003b0: cc31 113d b00c 343d b14d a7bb 653b bf3d
000003c0: 6956 d43d 22c3 bf3d 218b 963d 2479 87bd
000003d0: 9a3f 883c ba4c ddbc 5110 1c3c 4074 ae3d
000003e0: 65bf 5abd 3631 5a3d 4646 d23d 08a2 cb3d
000003f0: d61b 18bd 509a 873d 6fa5 843d 002a 39bd
-0.10460696 -0.12012376 -0.08373036 -0.1268039 -0.0005617431 -0.1265764 0.053445034 0.006389687
-0.07071991 -0.14276697 -0.029075712 0.059947144 -0.017333489 -0.004416185 -0.08713746 -0.035449117
-0.055452287 -0.04009026 -0.015907891 0.025629483 -0.038508087 0.02693631 -0.020617157 -0.085190296
0.00052967557 -0.06866011 -0.1103646 -0.08641333 -0.01961054 -0.102347694 -0.02489218 0.00055969413
-0.04028899 -0.0033772201 -0.09257067 -0.07122888 0.0378308 -0.042056855 0.0006416605 -0.039259043
-0.041605864 0.03595614 0.011654361 0.036074713 -0.05025121 -0.081693165 0.06471006 -0.033605285
-0.056867514 -0.03477623 -0.037442375 -0.051019903 -0.027773507 -0.041792516 -0.012486172 0.01131214
-0.0018368133 -0.056424316 0.019222392 -0.020635296 -0.05069905 0.019019214 0.01717144 -0.047514927
-0.025051355 0.004153747 0.019902846 0.021098156 0.005204187 -0.02000191 0.0035843481 0.0741734
-0.020717753 -0.0032898132 0.027544005 0.016839819 0.03917698 0.04330606 0.049873803 -0.0734687
0.007043931 0.039300893 -0.006668887 -0.005952067 -0.03069751 0.013063831 -0.005434869 0.052574597
0.050755396 -0.11291658 -0.049447082 -0.0050544012 0.0127812745 0.095572 0.032402106 0.07221971
-0.11052764 0.07867688 -0.000667135 -0.04261976 -0.002575377 -0.0998125 -0.015510792 0.081767775
0.053662978 0.047604334 0.058700316 -0.036618486 -0.0022123158 0.0110892365 0.063773185 0.008202293
-0.04659196 -0.06390687 -0.012108475 0.05393919 0.0047167856 0.0910923 0.11682807 0.01551267
-0.100551546 0.011054799 0.02859654 0.11781684 -0.051339358 0.06700555 -0.002915206 -0.09350039
0.12342347 -0.09854007 0.11208921 0.025878958 -0.084860474 -0.02155152 0.04560332 0.04493173
0.09758343 -0.036589973 -0.093627535 -0.0024066537 0.05771255 -0.11354089 -0.051557302 0.113637425
0.10376635 -0.060059164 0.098442905 0.086108275 0.08159342 -0.09154949 0.20115727 0.20073152
0.1453907 0.19890864 0.39400962 0.12620859 0.06070033 0.028128453 0.12056847 0.22589307
0.069289856 0.020845307 0.048050914 0.06842912 0.19377725 -0.057270076 0.009499002 0.032997586
0.04972787 0.11437548 -0.031722426 -0.017713357 0.040637277 0.036782574 0.20234074 0.18954627
0.09641702 0.18184109 0.23308405 0.27735642 0.07184872 0.06315188 0.04987792 0.11732697
0.23163566 0.04938684 0.047630943 0.059729446 -0.022191824 0.20005737 -0.05027513 0.013640242
0.051898155 0.07007831 0.12385599 -0.035964116 -0.015607441 0.030521734 0.056842286 0.18984684
0.13528553 0.16606687 0.09033858 0.17493924 0.3356167 0.06594243 0.044803385 0.06589608
0.0918099 0.23816147 0.015600593 0.008716556 0.08508328 0.018104415 0.07617764 -0.051460717
0.021502811 -0.0025890218 0.07483931 0.10632377 -0.029894276 0.04386021 0.03197934 0.07463369
0.18528597 -0.028775452 -0.035336953 0.11560664 0.025576286 0.09973852 0.05324046 -0.028865922
-0.0018267579 0.02015182 -0.095455624 0.009214101 0.03544788 0.043957412 -0.005105697 0.093375005
0.10368044 0.093633905 0.073507555 -0.066149026 0.01663189 -0.027014125 0.0095253745 0.08518267
-0.053405184 0.053269587 0.1026731 0.099430144 -0.03713592 0.0662123 0.064768665 -0.04520607

decoder.4.bias f4 [3]
00000000: 7318 20bd d17a 3b3d 7249 963d
-0.039085817 0.045771424 0.07338227
