models/noise_model.pt (torch, 525953 bytes, 12 tensors)

encoder.0.weight f4 [16, 3, 5, 5]
000000 4f 47 ac 3d 9e 9c 87 bd ad ac 4b 3d 7c ed fd bd
       0.084120385 -0.06621669 0.049725223 -0.12398812
000010 40 3a f1 bd 80 67 10 bd 3e 1e e2 bc 73 f1 d1 3d
       -0.117786884 -0.035254955 -0.027602311 0.10251131
000020 9c 7c 93 3d 18 cb cc bd 29 56 12 bc 21 9e 30 bd
       0.07201502 -0.099996746 -0.008931675 -0.043119553
000030 19 44 a4 bd 6f cf c2 38 9a f8 85 3d da cc 5f 3d
       -0.08020801 9.2892784e-05 0.065415576 0.05463872
000040 33 02 c6 3d ed 28 94 3c aa 8d 87 3b 86 0a 0c bc
       0.09668388 0.018085921 0.0041367607 -0.008547431
000050 f6 d2 9a 3c 20 94 b3 bd 3c e1 84 bc 34 b7 a0 bc
       0.018899422 -0.08768487 -0.016220681 -0.019618608
000060 76 96 1a 3d 03 69 f5 3d 28 96 e3 3d e5 e6 b8 bd
       0.037741147 0.1198292 0.111126244 -0.09028415
000070 e6 65 07 bc 95 e7 21 bd 9e 67 b8 bb cd c2 a7 3d
       -0.008264041 -0.039527494 -0.0056275865 0.08191452
000080 38 e1 47 3c c7 f9 8f bd dd 3e 8b 3b ff 63 2c 3c
       0.012199692 -0.07030063 0.0042494372 0.010521888
000090 b1 5a ec 3b 9d ea e5 bc c1 31 76 3d a3 a1 8d 3c
       0.0072129597 -0.028065974 0.060106043 0.017288988
0000a0 76 0b 91 bd ed dc 71 3d aa 88 d6 3d c5 52 69 3d
       -0.07082264 0.059048582 0.10475285 0.0569637
0000b0 a7 d5 1a 3d c1 0a 73 bc 71 52 d0 bd da 69 96 bd
       0.03780141 -0.014834107 -0.101719745 -0.07344408
0000c0 c6 9a 9d 3d 52 85 ce 3d 61 e3 64 3d e3 01 c4 3d
       0.07695536 0.100840226 0.055880908 0.09570672
0000d0 24 69 40 bd e8 cf d2 bd 8f 86 e8 bd f5 46 85 bb
       -0.04697527 -0.10293561 -0.1135379 -0.0040672966
0000e0 02 64 53 bd b4 1d 18 bd 0a bb 92 3d 10 d7 e3 bd
       -0.051609047 -0.037137702 0.07164581 -0.11125004
0000f0 63 d3 8b 3d 94 98 99 3b 9c 45 5a 3d 42 cb 89 3d
       0.06827428 0.004687378 0.05328904 0.067282215
000100 70 99 14 3c 98 64 4b bc 28 09 e9 bd 7c 61 ff 3c
       0.0090697855 -0.01241412 -0.113786995 0.031174414
000110 50 4d fb 3c 41 b5 9e 3d cf e2 39 3d 86 6f a7 3d
       0.030676514 0.07749415 0.045382317 0.08175568
000120 24 32 10 3d 7d d6 f2 bd 6c 13 d9 bd 50 f0 08 3d
       0.035204068 -0.11857317 -0.105994076 0.033432305
000130 c5 ee d6 3d 62 7f 91 bc 22 16 d7 bd 12 9e 05 3d
       0.104947604 -0.017760936 -0.105022684 0.03262145
000140 06 83 2e 3d 97 5d 96 3d d8 27 31 3d d6 85 c1 3d
       0.042605422 0.073420696 0.04325089 0.09449355
000150 d4 40 d8 3d 3f ee a7 3c d7 bf 24 bc 98 a5 bb 3d
       0.1055924 0.020499347 -0.010055504 0.09162444
000160 81 51 54 bd 7f a7 06 3d 3b 1b bf bc 69 5d 32 bb
       -0.05183554 0.03287458 -0.023328414 -0.0027216321
000170 c0 ea 0c be 76 a9 00 be 2d 85 a3 bc 71 27 1a bd
       -0.13761425 -0.12564644 -0.019960964 -0.03763527
000180 48 91 c4 bb 5c 34 bb bd 7a ff 58 3a 2b 0c db 3d
       -0.005998764 -0.09140846 0.0008277815 0.1069568
000190 66 98 56 bd 89 4e 60 bd 1a f1 5c bd 95 d6 8f 3d
       -0.052391432 -0.054762397 -0.05394087 0.0702335
0001a0 b9 9a 73 bd 69 a7 ca bd 1c 1a 63 bd 26 0f 71 3c
       -0.059473727 -0.09895212 -0.05544482 0.014713084
0001b0 0b a5 24 3c 55 9e c2 bc 3f 8f 3a bd 5f 5a 9a bc
       0.010049115 -0.02375714 -0.045546766 -0.01884192
0001c0 a5 2e 3e 3d 1d be ca 3d 57 7b d0 3d 8f e1 aa bd
       0.046431202 0.098995425 0.10179775 -0.08343803
0001d0 ca e6 e7 bd 8c cf fa 3b e0 e4 f1 bd c5 32 9f 3d
       -0.113233164 0.007654136 -0.118112326 0.077733554
0001e0 6c 5c 08 bc 40 89 24 bd a0 ec 4d bd 03 25 5b bd
       -0.008322816 -0.040169954 -0.05027449 -0.053502094
0001f0 2d 74 1b 3d 1d 67 40 3d ca d6 0e bd fc 25 70 bd
       0.03795259 0.046973336 -0.034872808 -0.058629975
000200 56 07 92 bd 80 76 d9 bc 2d 3d f7 bd 3f 47 0e bb
       -0.071303055 -0.026545763 -0.12072215 -0.0021709946
000210 1d 08 d4 3d a2 39 85 3c 12 68 a9 3d 6a 39 7a bd
       0.1035311 0.016262833 0.08271803 -0.06108991
000220 5d 9e 49 bd d6 8b 13 3e cb e3 10 3d cc 5e 04 3e
       -0.049223293 0.14408812 0.03537349 0.12926787
000230 56 9e cf bc 50 a5 0f 3d 01 f3 bd bd 86 f1 19 bd
       -0.025344055 0.035069764 -0.09274865 -0.03758385
000240 63 2c f9 3b cb 3d e5 3d 72 11 c1 3d 02 f0 82 3d
       0.0076041683 0.11193427 0.094271556 0.06393434
000250 67 c8 28 3d bc 99 3a bc f8 46 7e 3d 44 bb fd 3c
       0.041206744 -0.011389192 0.0620794 0.030973084
000260 5f e3 8a bc 2f c7 85 3d af 67 68 3d 08 85 93 bd
       -0.016954122 0.06532132 0.056739505 -0.07203108
000270 bb a4 28 bd d9 5b ba bd 0d 85 a5 3d 44 97 f9 bc
       -0.041172724 -0.0909955 0.08082018 -0.030467637
000280 5b a6 e3 bc 98 4f ee bb 1a 69 e2 3d 5f 71 c9 3d
       -0.027789285 -0.007272672 0.11055203 0.09836077
000290 ba b5 88 bd e4 e4 5f bd a4 f3 2f 3d f8 e9 52 3d
       -0.066752866 -0.054661646 0.042956963 0.05149266
0002a0 57 1a 20 3d 15 c3 ba 3d cd a1 10 3d c5 49 42 3d
       0.03908762 0.0911924 0.035310555 0.047433633
0002b0 5f f4 86 bd cd 6c 08 bd 7c 25 30 3c 65 d9 10 bc
       -0.06589579 -0.033306886 0.0107511245 -0.008840893
0002c0 76 4d bd 3d 29 a6 c4 3d a2 bd ca bd ba 3e 83 3d
       0.0924329 0.09602005 -0.09899451 0.064084485
0002d0 9d 3e 7d 3d 47 f4 ec 3d b4 24 2a 3d c8 ad fa 3d
       0.06182729 0.1157003 0.04153891 0.122401774
0002e0 44 88 1b bc fd 50 9d bc 96 0b d5 bd 1b 92 ea 3b
       -0.0094929375 -0.019203657 -0.104026005 0.0071585304
0002f0 27 07 83 3d d1 64 49 bd 9b f4 d5 3d 97 72 16 bc
       0.063978486 -0.04916841 0.104470454 -0.009182594
000300 20 82 a0 bd c6 b3 87 3d 85 b1 3d bd 44 fc 55 3d
       -0.078373194 0.06626086 -0.046311874 0.052242532
000310 b9 e2 92 bd 7f 21 6c bd 98 86 17 3c 37 16 b7 3d
       -0.0717215 -0.057649132 0.009248398 0.08939784
000320 89 ca 37 bd 4f f6 d5 bc d1 de 9d bc 61 dd c3 3d
       -0.044870887 -0.026118426 -0.019271286 0.09563709
000330 c4 aa 03 3e de a4 e6 bc 12 9f 4d bd 2a ba 99 3d
       0.1285811 -0.028154787 -0.05020053 0.07506211
000340 e7 32 75 bd 23 0c f6 3d ab 3d cc 3d 1d 67 f4 3d
       -0.059862997 0.12014034 0.099727 0.1193373
000350 53 b8 6c 3d 8e 68 3f bd 6a af f8 3c c5 53 e7 bd
       0.057792973 -0.04673057 0.030357081 -0.11295275
000360 6a a6 e4 3d 65 36 1a bd 1d 7f c4 3a ae 2e dc 3d
       0.111645535 -0.03764953 0.0014991496 0.10751091
000370 ca 2a 15 3d dc 28 a0 3d 76 79 2f bd 56 3c 05 3c
       0.03641776 0.07820293 -0.042840444 0.008132061
000380 5d dc 50 3d 8d 50 3c bd f3 4e d9 bd 86 c3 f9 bd
       0.050991405 -0.045975257 -0.106107615 -0.12195496
000390 01 14 ea bc 3b 41 84 3b 82 33 01 be 30 30 0a bd
       -0.028573992 0.0040360964 -0.12617305 -0.03373736
0003a0 dd fc d9 bd 39 ca 1f be a6 6d 84 bb ec 7b c4 bd
       -0.10643933 -0.15604486 -0.0040413914 -0.09593949
0003b0 16 83 05 be b2 21 85 bd 3f 91 fd bd 77 3e 65 3d
       -0.13038287 -0.065005675 -0.12381219 0.055967774
0003c0 b2 e4 a6 bd 5f a6 c6 3d 1a fa ed bc 8f 58 de bc
       -0.08149089 0.096997015 -0.029049922 -0.027141837
0003d0 17 ea 9c bd 11 e0 ba 3c 73 96 09 3d 73 4c 88 bd
       -0.076618366 0.022811921 0.033590745 -0.066552065
0003e0 1b b3 7e bc 5f 13 6f 3c 6a 84 18 bc 92 07 ab 3d
       -0.015545632 0.014592021 -0.009308914 0.08351053
0003f0 26 73 82 3b c3 cd 29 bd 8f 42 74 3d fc e6 58 3c
       0.003981012 -0.041455995 0.059633788 0.013238665

encoder.0.bias f4 [16]
000000 0a 2f 04 3d 10 17 b0 bc 59 5d 1e 3d 8f e1 6d 3d
       0.032271422 -0.021495372 0.038663242 0.058076438
000010 93 e8 65 bd 16 29 26 bd e8 ed a8 bd af 24 88 3d
       -0.056130003 -0.040566526 -0.08248502 0.06647622
000020 6a 9f 11 3c 92 3d e9 3b 06 5a 4d 3d 0e 27 ab 3c
       0.008888105 0.0071179355 0.05013468 0.020892646
000030 da 21 81 3c 7a d1 fd 3d 9b d3 8c 3d a1 de a2 3d
       0.015763212 0.1239347 0.06876298 0.07952619

encoder.2.weight f4 [32, 16, 5, 5]
000000 82 06 96 bb 26 4b 19 3d fb 91 c0 3c f3 7d 2b bc
       -0.0045784125 0.037425183 0.023507109 -0.01046704
000010 4d 1f cd bc 33 65 b0 3b ab 73 8f bc 4e a5 b4 bc
       -0.02503934 0.0053831576 -0.01751121 -0.02205148
000020 ef 3e 2e 3c cf 67 93 ba 11 6d d8 bc 53 97 9d bc
       0.010635122 -0.0011246147 -0.026419194 -0.019237196
000030 2b 1b b1 3c 54 21 2e bc 4d ae b6 3c 61 5f 08 bd
       0.0216194 -0.010628063 0.02229991 -0.033294085
000040 58 36 a4 bc 50 e6 b7 3c 65 fa 03 3d 0a 4e 06 bd
       -0.020045444 0.022448689 0.032221217 -0.032789268
000050 7c b5 e7 3c 71 05 9c bc 98 c1 86 3b 17 40 fb 3c
       0.02828478 -0.019045563 0.0041124336 0.030670209
000060 fb e5 d2 3b 01 de 3c bb d7 eb b4 b9 fc e0 c0 3c
       0.006436107 -0.0028818848 -0.0003450799 0.02354478
000070 c2 65 d4 bb 2b cc f4 3b a2 a4 86 bc 6b f8 4c 3c
       -0.006481857 0.007470628 -0.016435925 0.012510399
000080 da 3e 7e 3b e6 d0 91 38 6e e0 a7 3c 49 c3 b2 3c
       0.0038794787 6.953049e-05 0.020492759 0.021821635
000090 5f 13 b8 3c af de 5b ba 24 5f 22 3c b2 c2 b2 3c
       0.022470174 -0.00083873695 0.009910379 0.021821354
0000a0 1a 4c ff 3b 90 a4 4f bc 19 9d 9e bc 2e 9f 00 bc
       0.0077910544 -0.012673512 -0.01936202 -0.007850451
0000b0 c5 20 e0 3c 98 d5 83 bb 2d 1c d9 3b d8 15 39 3c
       0.027359376 -0.004023265 0.0066256733 0.011296712
0000c0 4f ea 74 bb 55 01 d0 bb a6 72 0c bc 5e 5a 03 bd
       -0.0037371104 -0.006347815 -0.008572256 -0.032068603
0000d0 1b ab 2b 3d 5a 51 4d 3c 3b b2 9b bc 68 86 26 bd
       0.041911226 0.012531603 -0.019005885 -0.040655524
0000e0 a3 fb 1b bd e0 bf 6a bc 20 07 91 35 29 bf 9d 3c
       -0.038081776 -0.014327973 1.0805416e-06 0.019256191
0000f0 30 8e 5d bd c2 91 7e bd 42 ad 4d bd 49 1e 17 bd
       -0.05409068 -0.062150724 -0.05021406 -0.036894117
000100 a5 4e 59 bd 09 ab 64 3c 71 93 ae bc 86 ca 79 bd
       -0.053053517 0.013956794 -0.02131054 -0.060984157
000110 93 d7 9b bb 84 0a fa 3c 4c 67 51 bd 8f 8d 65 bd
       -0.004755923 0.030522592 -0.051123902 -0.056043204
000120 8e 00 1a bd fb 29 41 3c 19 9d 81 3c 46 a9 fc 3b
       -0.037598185 0.011789794 0.01582198 0.0077106087
000130 a3 ee a4 bc 3b 25 b2 bb 01 d1 ea 3c 28 95 e5 3c
       -0.020133322 -0.005436567 0.028664114 0.028025225
000140 22 bb 6f bc 95 6f b0 bc 02 41 bd bc 02 97 6e bc
       -0.014632018 -0.021537581 -0.023102287 -0.01456237
000150 92 e7 5b ba 93 d9 d8 3c 21 11 0a 3d e8 02 72 3c
       -0.00083886937 0.026470935 0.03370774 0.014771201
000160 21 6c 8c 3b fe aa e8 3a bd 84 ca 3c d4 71 f2 3b
       0.004285351 0.0017751155 0.024721498 0.0073988233
000170 26 95 91 bb bd 7f b5 bb 4c 1b c4 3b 4b ff 2c bc
       -0.0044428287 -0.005538909 0.0059846994 -0.010558913
000180 12 da a9 3c f6 54 a2 3c cc e6 8a bc 80 53 ee bb
       0.020733867 0.019815903 -0.016955756 -0.0072731376
000190 fe 7c f3 bc ce 09 ca bc 84 03 06 bc eb f0 ce bc
       -0.029722687 -0.024662878 -0.008179549 -0.025261363
0001a0 a5 0f b8 3c f5 57 08 bd 1b f0 4c bc 21 44 03 3b
       0.022468397 -0.033287007 -0.0125084175 0.0020029622
0001b0 fc de 57 bb 7d 91 0b 3c c7 92 fe 3c 72 f9 31 bd
       -0.0032939306 0.008518574 0.031075848 -0.04345078
0001c0 c8 93 9c bc 1f ee 96 bc b4 ac 32 bd a2 d1 01 bb
       -0.019113436 -0.018424092 -0.043621734 -0.0019808789
0001d0 fe c2 5a bd 14 62 1f bd 0d dc 8d bb 29 d3 ef bb
       -0.053408615 -0.038911894 -0.0043292106 -0.0073188734
0001e0 f4 15 4a bd 6f b2 4d bd 76 7e 58 bc e8 ff 58 bd
       -0.049337342 -0.050218996 -0.013213744 -0.052978426
0001f0 ae f5 17 3c de eb 03 3d ef 43 df 3c a7 c7 22 3d
       0.009274883 0.032207362 0.027254073 0.039741185
000200 e9 91 06 bd 72 01 08 bd 21 4e d8 3c 4e 06 08 3d
       -0.032853995 -0.033204503 0.026404442 0.033209138
000210 e6 bb 29 3b 88 33 24 3d bb 1e 1e 3c cf d1 4c bc
       0.002589935 0.040088207 0.009650881 -0.012501194
000220 a6 19 f5 bc e7 89 52 bc bd a6 23 bc e1 ec 21 3d
       -0.029919457 -0.012850261 -0.009988484 0.039532546
000230 82 1f a8 bc 61 f2 ee 3c 19 cd c3 bc 8d a8 e3 3b
       -0.020522837 0.02916831 -0.02390151 0.006947583
000240 f1 3c 40 bd c5 6d fb 3a d0 47 f1 3c 13 c0 f8 3c
       -0.04693312 0.0019182494 0.029453188 0.030365026
000250 27 4a 60 3b ae 78 b9 bb ed 6d 54 3c f8 8d a5 3c
       0.0034223886 -0.005660138 0.0129656615 0.020209298
000260 11 a0 ae bc 81 42 1b bd 6b 10 9f bc 9e 50 b2 3c
       -0.02131656 -0.03790522 -0.019417008 0.021766957
000270 17 71 35 bd b3 db 06 bd 83 e8 47 3c 8d 2b 04 3d
       -0.044297304 -0.032924365 0.012201431 0.032268096
000280 70 67 ed bc 7e 41 fa 3c 8b f6 02 3d b1 2e 8a 3c
       -0.028979987 0.030548807 0.031973403 0.016867967
000290 48 60 a8 3c 0e 58 94 bc e1 94 20 3d 08 8c c3 bc
       0.020553723 -0.018108394 0.039204482 -0.023870483
0002a0 5f 71 58 3b d8 b2 cf 3c 8f 9d ec 3b 85 9d 27 bd
       0.0033026559 0.025353834 0.007220931 -0.040921707
0002b0 18 8a c8 3c 6e 13 d2 3b 3c 9c 2a 3c c0 5d a8 3b
       0.02447991 0.0064110076 0.010413226 0.005138129
0002c0 37 4f 01 3c a5 91 3b bd d1 f5 c8 3c 29 9b 13 3a
       0.007892421 -0.045793194 0.024531277 0.00056307256
0002d0 00 e0 22 bd 6e 6d 28 bd 5b ed e9 3c 3d 51 e4 bb
       -0.039764404 -0.041119985 0.028555563 -0.006967692
0002e0 de 51 7c bc 73 f1 f8 3c 8c 18 36 bc f2 25 93 3c
       -0.015400378 0.03038857 -0.011114251 0.01796243
0002f0 aa 92 a5 3b dc fd 17 3c 43 fa e1 bb 9f e6 0b 3d
       0.005052884 0.009276833 -0.0068962886 0.034155484
000300 30 74 0d 3d 23 cd 1e 3c cc c2 ef 3c 87 dc 80 3c
       0.034534633 0.009692463 0.029267691 0.015730156
000310 f3 84 87 3c 28 3b 5e bd 00 8b 94 3b 3a 19 d7 3c
       0.016542887 -0.054255635 0.0045331717 0.026257146
000320 d9 ef 48 3d c5 5f bb bb 3a f1 64 3c 25 db 67 3c
       0.04905686 -0.0057182037 0.0139735285 0.014151369
000330 f2 ba 33 3c 06 54 21 3d 6a be c7 3c 77 9a bf 3b
       0.010969864 0.03938677 0.024382789 0.005847271
000340 03 13 e3 3c 5d 35 36 bb ca 08 61 bc 8f 5f d8 3c
       0.027719026 -0.0027802803 -0.013735006 0.026412753
000350 f7 91 e9 3c d3 57 cc bc af 99 00 3d de 8d 3f bc
       0.028511984 -0.024944222 0.031396564 -0.011691539
000360 8c a3 90 3c 71 63 0e 3c 26 29 4a 3c 77 9f a4 3c
       0.01765611 0.008690701 0.012338912 0.02009557
000370 7f 7d f1 3c 44 57 1b bd 22 4f 20 bd 8e ce 5b 3c
       0.029478787 -0.03792502 -0.039137967 0.013415946
000380 02 f0 b2 bc 0c 7d 28 bd fb 44 24 bc bd e5 cd bc
       -0.02184296 -0.04113488 -0.010026212 -0.025133962
000390 c7 95 18 bd ab f2 3b bd 57 74 91 bb ae 0e e0 3b
       -0.037252214 -0.045885723 -0.0044389176 0.0068376875
0003a0 ae 46 42 3b 25 ef 98 bb 7e a1 cd bc 6f 24 74 bb
       0.002964418 -0.00466718 -0.02510142 -0.0037253161
0003b0 04 36 fb 3b 57 bf 3d 3d ce f9 17 3d f4 c9 9d 3c
       0.0076663513 0.046325054 0.037103467 0.019261338
0003c0 a0 52 cc 3c 70 92 07 3d 8a 89 45 3d ca 61 a7 3c
       0.024941742 0.033098638 0.04822687 0.020432372
0003d0 22 bb 91 b9 27 d0 b6 3c 7e 18 a1 3a 5c 04 45 bc
       -0.0002779598 0.022316052 0.0012290624 -0.012024965
0003e0 44 80 1c bc e5 ff 6a bc a0 94 47 3d 49 da e4 bc
       -0.009552065 -0.014343237 0.048725724 -0.027936118
0003f0 69 42 ae 3c ec cf 9d bc f1 dd 06 bc 36 1b 9f bb
       0.021271901 -0.019264184 -0.008231626 -0.0048555387

encoder.2.bias f4 [32]
000000 0d 20 6b 3c 4d 4c 38 3d 46 53 8e bd eb ba 42 bb
       0.014350903 0.04499464 -0.06949477 -0.0029713463
000010 50 23 9c 3d b2 8d 02 3d 4e c4 30 3b ab 0d 81 95
       0.07623923 0.031873412 0.0026972475 -5.212425e-26
000020 73 a3 42 3b c7 d2 26 3d 0a b8 64 3b 83 0f de 3c
       0.0029699474 0.040728357 0.0034899735 0.027107006
000030 c8 f6 55 3d b3 bc 4f bc 2b 2c 84 bc f2 5f 82 bc
       0.052237302 -0.012679267 -0.016134342 -0.01591489
000040 e2 49 95 3c e0 fd a0 bc 64 26 dd bc be c0 76 3c
       0.018223707 -0.019652307 -0.026995845 0.015060602
000050 df 0f 9e bc 95 e2 59 3c a1 f4 4f bd dc 21 50 3b
       -0.019294677 0.01329865 -0.050770406 0.0031758463
000060 0f 3d 22 bd d6 d0 c9 bd 3a 37 42 3c 0d 77 6e bd
       -0.03960901 -0.098542854 0.011853987 -0.058219004
000070 dc 14 c8 bc 8a 68 28 3c 79 90 9d bc f8 21 31 bc
       -0.024424009 0.01027883 -0.019233929 -0.010811321

encoder.4.weight f4 [64, 32, 5, 5]
000000 12 fb 80 3c 73 13 a1 3c 6a 62 db 3b f5 83 3d bc
       0.01574472 0.019662594 0.0066950815 -0.011567106
000010 d3 f9 92 3b e7 ab 42 3a 72 b0 ad 3b 52 76 20 bc
       0.004485348 0.0007426128 0.005300575 -0.009793835
000020 00 0e 7e bc 32 05 63 3b ad ff 37 bc a5 44 2e bc
       -0.015506268 0.0034640548 -0.011230391 -0.010636483
000030 5b b2 25 3c 89 23 6a bc 80 bc a0 bc 20 18 b6 3b
       0.010113324 -0.014290699 -0.019621134 0.005557075
000040 68 09 a9 bb d6 25 3e bb 3b f0 99 bb 7a fd db bb
       -0.005158592 -0.0029014251 -0.004697827 -0.0067135664
000050 15 65 28 bc b2 70 9c 3b 96 59 65 bb 46 43 5c 3b
       -0.010278006 0.0047741765 -0.0034996024 0.0033609434
000060 76 97 f5 bb 67 2e af 3b df 9b 65 3b 41 92 05 3b
       -0.007494862 0.0053461078 0.0035035533 0.0020381364
000070 db 63 8a 3a a6 50 e4 3a 8e 9d f3 3a 15 09 12 b9
       0.0010558324 0.0017419055 0.0018586384 -0.00013927028
000080 d3 b8 98 b9 e6 ed b3 39 c8 d3 91 3a 68 db 0b 3b
       -0.00029129404 0.0003431879 0.0011125738 0.0021340493
000090 67 00 e4 3a fc 02 17 3b 00 71 7e 3b 9b 87 9f 3b
       0.001739514 0.002304255 0.0038824677 0.0048684604
0000a0 a7 90 a4 3a 78 e6 3a 3a dd 24 56 3b 79 01 9f 3b
       0.0012555317 0.00071296794 0.003267578 0.0048524705
0000b0 f0 5c cf 3b 2d d5 82 ba 55 32 77 bb 7d 8d d9 ba
       0.0063282177 -0.0009981744 -0.003771921 -0.0016597953
0000c0 09 95 b4 3a 69 16 64 3b 56 9a 52 3c 04 c4 a3 3c
       0.0013777326 0.0034803397 0.012854179 0.019990928
0000d0 4d 7c aa 3b cc d6 26 bc 4e 82 b6 3b f8 45 78 bb
       0.005202806 -0.0101830475 0.0055697327 -0.0037883501
0000e0 83 7b b9 bc 0c 94 07 3c 57 68 dc 3c 98 36 e6 3c
       -0.022641903 0.008275043 0.026905222 0.028102204
0000f0 a0 14 aa 3a a9 00 ac bc 25 56 c2 bc d9 5a 31 bc
       0.0012976117 -0.020996409 -0.023722718 -0.010824882
000100 bb a5 08 3d 74 b1 9c 3c 7f 98 89 bc a3 15 76 bc
       0.033361178 0.019127585 -0.016796349 -0.015019807
000110 00 95 f6 bc fe 3b cd bc f4 6c 06 bc 1b cf 51 3c
       -0.030100346 -0.02505302 -0.008204687 0.012805725
000120 c0 a4 db 3c 30 ce 58 3c bb 6f 99 3a db 82 96 3b
       0.026811957 0.013232753 0.0011706272 0.004593236
000130 31 f2 e9 3b 67 4d d3 3c cc 47 62 3c 6e 9f 49 3c
       0.007139467 0.025793744 0.013811063 0.012306077
000140 22 c8 e6 bb 2f 97 15 bc bb 1c 45 3b b6 ea f4 3b
       -0.0070429007 -0.009130283 0.003007694 0.007474269
000150 90 2c c9 ba cd 31 e7 bc 06 b6 ab bc 89 1b f1 bb
       -0.0015348364 -0.028221989 -0.020960819 -0.007358019
000160 a5 28 06 3b bc e6 42 bc 79 d7 67 bc 32 5a 6f bc
       0.0020471003 -0.011895832 -0.014150494 -0.014608907
000170 0e 33 4d ba a4 fd 99 bb b8 13 19 bc 75 7b 40 3b
       -0.0007827737 -0.004699426 -0.00934308 0.002937046
000180 30 90 20 bb a9 30 95 3b 42 4a 0b 3b 2d 2a da ba
       -0.0024500005 0.00455292 0.0021253978 -0.001664465
000190 26 f8 8e 3c 84 fe 9f bc e8 29 51 bc 91 7f cc bc
       0.01745231 -0.019530542 -0.012766339 -0.024963172
0001a0 de 59 f3 bb 2d 35 c0 bc e7 9e 91 3c 1a 6a 6e bc
       -0.0074264845 -0.023462856 0.017775966 -0.014551664
0001b0 ad 80 c4 bc 68 75 1f 3c 00 9e a1 ba 4e 8f 57 3c
       -0.023987139 0.009732582 -0.0012330413 0.013156725
0001c0 33 6e 86 bc a9 66 4b 3c 17 36 b2 bb 13 4d 0b 3c
       -0.016409969 0.012414613 -0.005438577 0.008502263
0001d0 49 c5 8e 3c 29 cb fe bc bf eb ac 3b 5e 90 48 3c
       0.017428057 -0.031102734 0.0052771266 0.012241451
0001e0 af 55 b1 3c 9d 9c b6 bc c7 fe f0 bc f2 48 e3 3b
       0.021647302 -0.022291476 -0.029418362 0.006936186
0001f0 cf b3 43 3c 4d c7 0a 3c 66 ed e6 b9 bc c5 94 bb
       0.011944725 0.008470369 -0.00044045894 -0.0045401733
000200 d3 bd 7e 3a 13 67 13 3b 75 9f 9b bc a0 e5 fe bb
       0.0009717617 0.0022491857 -0.018996933 -0.0077788383
000210 a5 a1 f8 bb ca b0 e2 bb 1e 2b 46 3c 61 9e a1 bb
       -0.007587629 -0.0069180476 0.012095241 -0.0049322103
000220 ba 19 2a bc 63 39 b4 3b 7a 22 a5 bc 18 af 41 bc
       -0.01038211 0.005500005 -0.020158041 -0.011821531
000230 65 7a 5d 3b f5 c7 10 bc b2 9d c3 bb 65 f5 d7 bb
       0.0033794877 -0.008836736 -0.0059697265 -0.0065905326
000240 a8 e6 1e bc 26 50 27 bb 1e 16 e5 bb 38 2d 70 bc
       -0.009698547 -0.002552995 -0.006991162 -0.0146592185
000250 3e fc fb bc ff a2 bb bc 91 37 0a 3c 63 17 1b bc
       -0.030759927 -0.022904871 0.0084361 -0.009466025
000260 75 6f 37 3c 46 a2 f7 3a 23 f6 ee bb 85 19 4f bc
       0.011196007 0.0018892966 -0.0072925254 -0.012640362
000270 05 ef 88 bb e9 5d d0 3b 98 9f 12 bb e0 5f dc 3a
       -0.004178884 0.006358851 -0.0022372957 0.0016813241
000280 41 2e b2 ba 37 2e e8 bb 6f 9a 82 bc 70 c4 14 3c
       -0.0013594107 -0.0070855874 -0.01594278 0.0090800375
000290 a0 ed 36 3b 62 33 88 3b 97 2c 45 bc 0f e7 a1 bc
       0.0027912632 0.004156516 -0.012034557 -0.019763498
0002a0 fa 9b 77 bc da 3e 2a 3b ae 71 ff 3b 0e 67 29 bc
       -0.015112871 0.0025977404 0.007795534 -0.010339512
0002b0 83 14 7c bb dc 1c 34 3c 96 2c bf 3b 2a 5d bc 92
       -0.0038464374 0.010993209 0.0058341725 -1.1887435e-27
0002c0 c0 b3 8f 92 80 31 af 91 77 c5 3c 92 fa b1 be 11
       -9.068881e-28 -2.7640638e-28 -5.9565734e-28 3.00864e-28
0002d0 a5 fb cc 10 10 3b 4b 90 c0 75 0c 93 c7 a5 f9 92
       8.085153e-29 -4.008019e-29 -1.772854e-27 -1.57549765e-27
0002e0 3b f4 28 12 7b a3 12 11 23 8c 16 93 bf 9a 25 93
       5.331249e-28 1.1567746e-28 -1.9001754e-27 -2.0902224e-27
0002f0 49 87 d1 92 e0 8b 30 93 3b 52 b7 92 2e 69 ac 11
       -1.3223105e-27 -2.2283287e-27 -1.1569195e-27 2.7201637e-28
000300 86 05 0d 93 77 bf a0 92 87 df d3 92 69 15 9e 11
       -1.7799425e-27 -1.0144619e-27 -1.3371076e-27 2.49412e-28
000310 d4 9d 78 11 76 2e 59 91 15 a7 b1 92 98 a6 19 92
       1.9612385e-28 -1.7132599e-28 -1.1211459e-27 -4.848363e-28
000320 b3 c0 37 3c 8c c8 a0 bb 2f 16 b1 3c 8c fd 57 bc
       0.011215377 -0.0049067196 0.021617023 -0.013183009
000330 2d 9d ea 3c df 2c 18 bd 95 e6 9f 3c 7c d5 b1 bc
       0.0286394 -0.037152167 0.01951913 -0.021708243
000340 30 3f b5 3c 68 e0 a1 bc 0e c2 0d bd 90 61 09 bd
       0.022124857 -0.019760326 -0.034608893 -0.03354031
000350 f2 a6 a7 ba 51 5a 85 3b 20 d3 de 3c 67 2b 0c bd
       -0.0012790842 0.0040696044 0.027200282 -0.03422108
000360 c5 d5 c2 3c 5e 3c 3d 3c 95 e7 d6 3c 42 9d cd 3c
       0.023783574 0.011550037 0.026233474 0.0250994
000370 84 0f ce bc ef 53 0e bc 3b 33 5b bc 0e 49 b3 3c
       -0.025153883 -0.0086870035 -0.0133789135 0.021885421
000380 01 b1 d1 bc a5 78 a2 bc 6f 91 70 bc d4 c8 de b9
       -0.025597097 -0.019832918 -0.014683112 -0.00042492768
000390 68 1b 19 bc 29 ae 97 3c 4a bf 7f bc e0 85 8e 3c
       -0.009344913 0.018515663 -0.015609572 0.017397821
0003a0 7a 1b 1e bb 00 69 ae 3c 09 c3 0d 3c 5c af 9e 3c
       -0.0024125264 0.021290302 0.008652457 0.019370727
0003b0 09 50 0d bc 04 31 94 bc 8a e0 b4 3b 7a c1 5b 3c
       -0.008625039 -0.018089779 0.005519931 0.013412828
0003c0 61 5c 90 3c ce 70 d8 3c b0 36 5d bc e1 1e d0 3c
       0.017622175 0.026420977 -0.013501808 0.02540535
0003d0 98 84 d6 bb 8d 1c a3 bc af 84 96 3b 2c d5 82 3c
       -0.006546568 -0.019911075 0.004593454 0.015970789
0003e0 c1 9b e6 bb bb 33 b3 3b f9 c1 b6 2c a2 d9 dd 2c
       -0.0070376103 0.0054688132 5.1942864e-12 6.30536e-12
0003f0 e9 11 bb 2c 3a 7d 91 2c 9c 1f 4c 2c f6 0a c8 2c
       5.316848e-12 4.135051e-12 2.900769e-12 5.685559e-12

encoder.4.bias f4 [64]
000000 5f fd 00 3c f8 d9 e0 bc c0 64 42 bd 68 b7 91 bb
       0.007872908 -0.027447686 -0.047459364 -0.0044469126
000010 7f ad 7b 3c f6 1e b2 bb 92 dd cd 3c 01 db a3 39
       0.015361189 -0.0054358197 0.025130067 0.00031252953
000020 d2 7d 34 bd 12 53 cf b9 c6 6b 41 3d 9b 99 00 3c
       -0.044065304 -0.0003954401 0.04722192 0.007849122
000030 32 68 9e 3c 3a 1f 8e 3b 47 89 10 bd f2 fe 4e bc
       0.019336794 0.0043372186 -0.035287168 -0.012634026
000040 34 c8 02 bb ea 8c ae bc 33 3f 4a bd 81 32 69 bd
       -0.0019955756 -0.021307427 -0.049376678 -0.05693293
000050 e5 16 c1 bb 22 b9 d6 bb 33 21 aa b5 79 d6 04 3c
       -0.005892622 -0.0065528313 -1.2675649e-06 0.008107775
000060 b2 e9 d2 bc e9 2c 4a bc 00 30 ab bc 61 d0 35 3c
       -0.0257462 -0.012339809 -0.020896912 0.011097045
000070 8d 3a e9 3c 4c 30 fc 3c 4f fa d5 bc 47 8d 83 3b
       0.028470302 0.030784748 -0.026120333 0.0040146443
000080 24 db 2c bd 95 36 65 bc 65 47 07 bb 04 4f 1b 3b
       -0.042201176 -0.013990064 -0.002064192 0.002369822
000090 8f d9 eb bc 1f 56 c6 bc 45 5c 1a 3d cf f0 63 3c
       -0.028790263 -0.024210988 0.03768565 0.013912394
0000a0 12 21 c0 bb 50 43 26 bd 88 61 67 b6 93 67 42 bc
       -0.0058633173 -0.040591538 -3.4478453e-06 -0.011865514
0000b0 14 17 84 bc ce d7 cf ba d9 08 34 bd ed bd d7 bc
       -0.016124286 -0.0015857161 -0.04395375 -0.02633568
0000c0 0a 68 9a ba 36 8a ae 3c 78 fa cd bc 53 b2 4f bc
       -0.0011780274 0.021306138 -0.025143847 -0.012676793
0000d0 cc 21 b8 3a aa 86 9b bc a5 94 79 ac ec 6a 3c bd
       0.0014048158 -0.018985111 -3.5467543e-12 -0.046000406
0000e0 86 f2 b1 3c 1d e4 7c bc 2b 2c 03 b2 b6 ee aa 3c
       0.02172209 -0.015435246 -7.635246e-09 0.02086578
0000f0 8a 43 cc 3c 8c 0c 82 3a 32 ac 0d bd 0f e2 9b 3c
       0.024934549 0.0009921952 -0.034588046 0.019028692

decoder.0.weight f4 [64, 32, 5, 5]
000000 fd e8 3c bd 45 31 7f bc 2c 4a da 39 52 a8 a0 3c
       -0.046120632 -0.015575712 0.00041635463 0.019611511
000010 fe fc 01 3d 14 02 97 bc d5 a8 f8 bb fe 7c 97 bb
       0.031735413 -0.018433608 -0.0075884857 -0.0046230545
000020 a5 7a fc ba 15 76 72 3a 3d d0 c1 bb 78 6d 97 ba
       -0.0019262625 0.0009249163 -0.0059147165 -0.001155301
000030 7f f7 ae bb ab be 9e bb 43 60 12 bc 08 e4 82 3c
       -0.0053395624 -0.0048445067 -0.008934083 0.015977874
000040 8b 5a 04 3c 97 21 15 bc 44 76 09 3b 31 d7 21 3a
       0.008078228 -0.009102247 0.0020975033 0.00061737286
000050 16 47 97 3c 15 74 38 3c 68 00 9e bb d4 f4 14 bc
       0.018466514 0.011258145 -0.004821826 -0.009091575
000060 c3 28 83 3a ac 9c de 3c 39 5b 95 3c 8b 67 b3 ba
       0.0010006655 0.027174316 0.018231975 -0.0013687474
000070 19 9c d6 bb fd 08 9d bc e0 70 ee bb c0 5a 72 bb
       -0.00654937 -0.019169325 -0.0072766393 -0.003698036
000080 97 26 a1 3a 61 6d 8f 3b 2f 0a af bb 58 97 32 bc
       0.0012294826 0.0043770527 -0.00534179 -0.010900341
000090 dc a3 a3 bb 5d 0f f0 bb 69 e7 83 3b d9 01 50 bc
       -0.004993899 -0.00732605 0.004025389 -0.012695753
0000a0 8b 6e 52 bc 65 a4 ec bb ff 6d 0b bb 63 cb 6a 3b
       -0.012843738 -0.007221746 -0.002127528 0.0035826794
0000b0 7a 2b a1 bc 36 42 a9 bb b4 27 4e bb b5 c1 c5 bb
       -0.019674052 -0.0051653637 -0.003145677 -0.0060350546
0000c0 55 a6 98 bb 51 15 c7 bc c0 9c 9c ba 46 4c 47 bb
       -0.0046585 -0.024302157 -0.0011948571 -0.0030410453
0000d0 ae 2b 61 3b dc 78 f9 3a 78 21 97 bb 66 ab ac bc
       0.003435831 0.0019033211 -0.004612144 -0.021077823
0000e0 e6 0a b7 bc 1d d8 d5 bb a6 4d b5 ba f0 fc 8c bb
       -0.022344064 -0.006526007 -0.0013832345 -0.0043026134
0000f0 de 0b 18 bc 80 61 6a bc f4 09 fb bb 8a 71 19 bb
       -0.009280173 -0.014305472 -0.0076610986 -0.0023413622
000100 0f 42 ca bb d5 da e4 3a 38 cf 7d bc d4 f5 4a bc
       -0.0061724256 0.0017460237 -0.015491299 -0.012387712
000110 b1 73 33 bc af 1a 5b bc ac 94 8b 3b 46 b8 96 3b
       -0.010952876 -0.013373061 0.0042596664 0.004599604
000120 0b 99 9b 3b 51 70 56 ba 8b fb 79 3b 18 09 76 3b
       0.0047484688 -0.00081801886 0.0038144316 0.0037542041
000130 60 7e 6d bb 17 c8 d2 ba 0b 08 18 bb 39 68 98 3c
       -0.0036238655 -0.001608136 -0.0023198153 0.018604385
000140 8c 59 a7 3a 63 f6 99 bb e4 ae 0c bc d9 86 25 bc
       0.0012767776 -0.004698561 -0.008586619 -0.010102951
000150 ba be e5 3b 09 f9 f6 ba 3f 5a bf bb 6f 43 9a bb
       0.007011262 -0.0018842529 -0.0058396156 -0.0047077457
000160 6e d2 45 bc 19 33 ec 3b 77 83 85 bb c8 b2 2c bb
       -0.012074096 0.0072082398 -0.0040745097 -0.002635168
000170 42 7e 91 bb e6 d4 1c bc 0f 8d 01 3c d9 50 cf bc
       -0.0044401 -0.009572243 0.007907166 -0.025307106
000180 2d cc a8 bc 45 a6 69 bc 3f cd 2e bc f4 78 5d ba
       -0.020605171 -0.014260833 -0.010669052 -0.00084485044
000190 d5 11 ec 3a ae b8 d6 3b 0c 1a 2b 3b aa db 42 3c
       0.0018010685 0.0065527773 0.0026108054 0.011893192
0001a0 4d a0 db bc ff 2f bf bc 18 1a 00 bc 33 96 77 bc
       -0.026809836 -0.023338316 -0.007818721 -0.015111494
0001b0 e5 d0 b6 ba 9a 80 17 bc a4 a4 f9 3c 42 7e 10 bb
       -0.0013947753 -0.00924697 0.030474015 -0.0022047912
0001c0 68 2c e9 3c 1d 72 87 bc 32 66 c7 3c 00 3a f4 3c
       0.028463557 -0.016533906 0.024340723 0.029812813
0001d0 4b 38 3e bc 74 fd 78 3c 83 2c 89 3c 80 bc 26 3c
       -0.011610101 0.015197147 0.016744858 0.010176778
0001e0 e8 36 b2 3b 22 88 a9 ba 30 0e f3 3c bf 45 c4 3c
       0.0054386742 -0.0012934247 0.029669851 0.023959039
0001f0 e4 55 cd 3c ac 16 e9 bc 6b 0b ff bb 6f 3c 57 3b
       0.02506537 -0.028453194 -0.0077833435 0.0032842418
000200 07 17 75 3c b1 12 ab 3c 1b 36 be bb b5 75 1f 3a
       0.014959103 0.020882936 -0.0058047897 0.00060829084
000210 dd d5 77 3b 93 e6 dd bb 33 30 71 3a aa 99 0e bc
       0.0037816681 -0.0067718714 0.00092006027 -0.008703629
000220 f2 f0 4c 3b e3 4f 85 3b 46 95 b8 bb 9a 46 11 bc
       0.0031271544 0.004068361 -0.005633029 -0.00886693
000230 09 cd 22 bc 29 c3 8a b9 dc e2 95 bb 53 08 06 bb
       -0.0099365795 -0.00026466817 -0.004574163 -0.002045174
000240 51 5e 23 3b bc ae 9d ba 04 62 b6 bb f8 ee c5 bb
       0.0024928043 -0.0012030224 -0.0055658836 -0.00604045
000250 b0 be 84 3b 13 a5 7d bb 42 94 3e 00 49 bd 05 80
       0.004051052 -0.0038703128 5.746986e-39 -5.2708e-40
000260 2e d6 00 80 da 1b 0e 00 6d 7e a5 83 c0 61 49 00
       -7.6833e-41 1.295688e-39 -9.726854e-37 6.739057e-39
000270 97 ba 0a 80 dd 28 0e 00 77 9f 00 00 da a2 82 07
       -9.85291e-40 1.300356e-39 5.7205e-41 1.9655942e-34
000280 c0 6b 73 00 83 73 03 80 4c ef 09 00 a0 0b 0a 00
       1.0599735e-38 -3.16944e-40 9.12363e-40 9.22525e-40
000290 9b 51 c6 87 a9 55 2b 80 4d f2 03 00 f4 c4 04 00
       -2.9839692e-34 -3.979655e-39 3.62428e-40 4.37995e-40
0002a0 0e a4 0a 00 c2 aa 1f 03 a0 33 06 00 f6 9b 0b 80
       9.77207e-40 4.692192e-37 5.69533e-40 -1.066139e-39
0002b0 e9 b4 05 80 5f e3 02 00 a2 26 3e 87 29 f5 3c bb
       -5.24076e-40 2.65236e-40 -1.4305364e-34 -0.002883265
0002c0 3e 73 da 3c cd 53 3f 3c d0 2a 8c bb 86 0b b7 bc
       0.02666628 0.0116776945 -0.0042775646 -0.022344362
0002d0 e7 18 f5 bc 8c 67 29 bc 15 07 c7 ba 9a e5 7f 3c
       -0.0299191 -0.010339629 -0.0015184606 0.015618706
0002e0 02 6e 4d 3c 20 cd 8e 3c 36 44 3b ba 8a 74 86 bc
       0.012538435 0.017431796 -0.0007143648 -0.016412992
0002f0 ef 1c 57 bc de 2a bf bc 60 c5 c8 bc 5a fa c0 bb
       -0.013129457 -0.02333587 -0.024508178 -0.005889219
000300 0b 6e b9 3b 84 e2 e9 bb cc ac 8e bc 73 9e af bc
       0.00565887 -0.0071375985 -0.01741638 -0.02143786
000310 89 c9 72 bc f8 9e c1 3b be 7a ee bc 5b 24 bd bb
       -0.014818558 0.005908843 -0.029111262 -0.005772156
000320 23 87 ce b8 33 33 20 3c 66 da f7 3b e7 af c8 3b
       -9.8480166e-05 0.009777832 0.007563877 0.006124485
000330 86 a7 98 3c 02 0e ff ba 46 cd fe ba c5 c9 fe bb
       0.018634569 -0.0019459131 -0.0019439838 -0.0077755176
000340 de dd 4c bc 61 7b 1d 3b 1c 79 3a bb 68 01 69 bb
       -0.012504069 0.0024029838 -0.0028453534 -0.0035553817
000350 5c 92 f8 bb 33 9c 80 bc 01 c2 4b bb d5 d9 2e bc
       -0.007585807 -0.015699482 -0.0031090977 -0.010672052
000360 05 68 39 bc 13 5d dc bb c3 87 3e bc 26 d0 af bb
       -0.011316304 -0.0067249625 -0.011629048 -0.0053653894
000370 40 b7 0a bd 48 65 29 bd b8 90 da bc 91 00 91 bc
       -0.033866167 -0.041356355 -0.026680335 -0.017700465
000380 7f 29 86 bb 57 1d 1b bc 81 90 28 3b 51 f7 04 3c
       -0.004094302 -0.009467444 0.0025720897 0.008115605
000390 dc b4 a4 3a 4f fa 95 3c ed 62 50 3c d6 9c d3 3a
       0.0012566107 0.018307833 0.012718898 0.0016144763
0003a0 8b 12 d7 3b ae 0c 85 bc 7c 52 42 bb d1 e8 b7 39
       0.00656349 -0.016241398 -0.0029651215 0.00035077942
0003b0 30 a8 52 bc 88 e4 21 ba e4 d4 41 3c ce 9a 91 3b
       -0.012857482 -0.00061757164 0.011830542 0.004443503
0003c0 13 68 0f 3c 62 4b 8f 3a bc 40 b0 3c 98 41 80 3c
       0.008752841 0.00109325 0.021515243 0.015656278
0003d0 67 6f 34 bb 9b a6 2a bb 47 e3 03 3b 85 6f 8f 3a
       -0.0027532221 -0.0026039246 0.0020124482 0.001094327
0003e0 56 93 9a 3c 94 e2 46 3c cd b9 d9 bc 06 08 68 bc
       0.018869083 0.012138981 -0.026577855 -0.014162069
0003f0 73 80 55 bc 81 82 24 bc 4b b0 a9 ba e8 bf c7 bc
       -0.013031113 -0.01004088 -0.0012946216 -0.0243835

decoder.0.bias f4 [32]
000000 a6 f6 a1 3c e3 14 f5 3c 14 13 b2 3c f2 75 02 3c
       0.019770931 0.029917186 0.021737613 0.007962691
000010 bd 6f bb 3b 41 6d 84 3c fa 23 60 b6 12 f4 08 3b
       0.0057201074 0.016165378 -3.3399542e-06 0.002089743
000020 de d0 16 3d 43 95 8a 3b 8d 79 ab 3c c6 59 e7 3c
       0.036820285 0.004229219 0.020931983 0.02824105
000030 6d cc 05 3c 8f 0a bc bc 8d 91 60 bc 87 d1 c2 bb
       0.008166415 -0.022954253 -0.013706577 -0.0059453878
000040 fd ab 64 bc 05 20 3e 3d 8e 7e 8e bb 52 9f 81 3c
       -0.013957021 0.046417255 -0.0043485826 0.01582304
000050 f3 eb 78 3b ea 00 74 3d 34 e5 1f bc ba 1e c6 3c
       0.0037982434 0.059571184 -0.009759236 0.024184573
000060 54 64 f0 3c 5f 60 35 3d ac 6d 2a 3d 95 2d d5 bb
       0.029344715 0.04428136 0.041608498 -0.006505678
000070 57 96 b4 bc ef 4f 8c 3a 3a a5 03 3c 73 b5 23 3d
       -0.022044344 0.0010704974 0.008034999 0.039967965

decoder.2.weight f4 [32, 16, 5, 5]
000000 3c f2 19 3d e2 e4 9f 3c bb 4f 6f bb 38 82 00 bc
       0.03758453 0.01951832 -0.003651603 -0.007843547
000010 ee 43 d5 3b 70 bd e9 bc 83 d3 28 3c 4a f5 99 3c
       0.006508342 -0.028532714 0.010304335 0.01879372
000020 b4 ef cc 3b 52 91 ae 3c d5 43 5c bd 97 40 10 3c
       0.006254161 0.021309528 -0.053775627 0.008804462
000030 fe ba 13 3c a9 ac 7a ba 31 1a 85 bb 9c c6 43 bd
       0.00901675 -0.00095624715 -0.00406196 -0.04779683
000040 da b9 07 bc 92 1c 6a 3c fe aa 70 39 c6 19 22 3c
       -0.008284057 0.014289038 0.00022951883 0.00989384
000050 cf ea 3a bd 3e d9 7a bc 6f 01 9d b9 97 a8 cd 3a
       -0.045634087 -0.015310584 -0.00029946442 0.0015690502
000060 f6 1e 1e 3c 23 cc 3d 3d eb 31 0c 3c a0 90 8c bc
       0.009650936 0.046337258 0.008556823 -0.017158806
000070 dd 4d 92 bb 63 a1 c2 bc 8b af c4 3d 68 b9 0d 3d
       -0.0044648484 -0.023758596 0.09603795 0.034600645
000080 7b 9a bb 3c 32 5b ba 3c 4f 9a 66 3c 94 b6 8c 3d
       0.02290081 0.022748563 0.014074876 0.068707615
000090 6f 9f ca 3c 92 68 02 3c 45 1e 8f bb 8d c6 32 bc
       0.024734227 0.007959502 -0.004367622 -0.010911596
0000a0 09 a1 2e 3d 84 55 95 bb ad f9 a1 bb 6a b3 ac bc
       0.042634044 -0.0045573134 -0.0049430938 -0.021081645
0000b0 f2 75 f1 bc 29 1f b4 3c 8e 9e 6c 3a 0d 50 e5 bb
       -0.029475186 0.021987515 0.0009026312 -0.006998068
0000c0 c7 69 70 bc f3 92 b3 bc 14 09 68 3d 76 a0 85 3c
       -0.014673657 -0.021920657 0.056649283 0.016311865
0000d0 f6 f7 ee 3c d4 22 24 3c 6d 5c 07 3d d9 22 94 3d
       0.029170971 0.010018069 0.03304713 0.07233209
0000e0 99 8c 83 3d 21 82 a8 3d 03 6a 3f 3d f7 53 5c 3d
       0.06423301 0.08227945 0.04673196 0.053791013
0000f0 14 66 d9 3b b4 19 ca bb 5b 3f 2a 3c cf 22 4d 3b
       0.006634483 -0.006167615 0.010391082 0.0031301265
000100 a7 17 cd b9 f4 c2 b0 3c 78 cd ce 3b 1e 4d 91 3c
       -0.0003911827 0.021577336 0.006311115 0.017736968
000110 f3 24 a3 3c 5f 30 9e 3c 4f 00 47 3c 95 8f b2 bc
       0.01991508 0.019310175 0.01214607 -0.02179698
000120 41 1d 51 3c ad 58 31 bc 3e 10 94 bc a4 94 be 3b
       0.012763322 -0.010824365 -0.018074151 0.005816059
000130 89 bd 9a 3c 45 91 60 3c 62 99 23 3d a9 8a 7e 3c
       0.018889206 0.01370651 0.0399412 0.015535989
000140 0a 67 04 3d be c8 c3 3c af e3 22 3a 7d 82 71 b8
       0.03232483 0.023899432 0.0006213737 -5.7580404e-05
000150 9f 3a c0 bb 6b 07 5b 3d 21 19 7e 3c af 4d 51 bc
       -0.005866363 0.05347387 0.015508921 -0.012774869
000160 60 9c 4a bc c0 11 23 bc 6c ef 8b 3c 6b 0b 3b 3c
       -0.012366384 -0.009952962 0.017081939 0.0114162965
000170 28 c3 19 3b 61 0f 82 bc ca e2 17 bc 62 6b 88 bb
       0.002346227 -0.015876474 -0.009270379 -0.0041631917
000180 5c ff c0 3b 94 16 05 3c fa ec e8 bb a1 87 d0 bb
       0.005889816 0.008123059 -0.007108328 -0.0063638245
000190 12 44 c6 3d 93 91 17 3d 2c ba f2 3c 20 a1 64 3a
       0.09680952 0.037004065 0.02962979 0.0008721519
0001a0 34 ca a8 3c 0e 62 64 3d aa b5 69 3d 8b de 00 3d
       0.02060423 0.055757575 0.057058014 0.031462234
0001b0 b5 87 22 3d fe 7a f2 3c b1 ad 1b 3d 69 d1 d3 3c
       0.0396802 0.029599663 0.038007442 0.02585669
0001c0 5c d2 c3 3c 9c c4 58 bc 85 ee 0b bb 03 68 18 3d
       0.023904018 -0.013230469 -0.0021351886 0.03720857
0001d0 03 10 d9 3c 03 98 df 3c 97 65 07 3d 64 2f d3 3c
       0.026496893 0.027294165 0.033055868 0.025779434
0001e0 00 e8 06 3d 6b f3 f0 3c 05 41 0b bb c8 88 b1 bc
       0.032936096 0.029412946 -0.0021248471 -0.021671668
0001f0 d8 ed c3 3b 1e 47 fd 3d c6 f2 2f 3d 17 8a 52 bb
       0.005979281 0.1236708 0.042956136 -0.0032125765
000200 6a 49 08 bc 54 15 de 3c 20 99 d9 3b ee 50 e4 bc
       -0.0083182845 0.02710978 0.0066405684 -0.027870622
000210 d7 90 de bc 72 b5 1d bd 35 bd 17 bd 26 8a b3 bc
       -0.027168674 -0.038503118 -0.037045676 -0.02191646
000220 53 8d 78 bb 05 60 04 bc 6d 8e e3 bb ee 34 b4 bc
       -0.0037926033 -0.008079533 -0.0069444687 -0.021997895
000230 9c 6e 76 bd ae eb 1e bc 8c 19 8b bc 64 80 4e bc
       -0.06016408 -0.009699745 -0.016979955 -0.012603853
000240 22 f7 c4 bc c3 23 e6 bd 84 a6 0f bd 4b c0 b9 bc
       -0.024043623 -0.1123729 -0.03507091 -0.0226747
000250 69 d9 ac bc d6 01 29 bd 26 fb 1d 3e d6 cc 8a 3d
       -0.021099763 -0.041261517 0.15427837 0.067773506
000260 c1 10 61 3d 23 45 e0 3d 2c c3 98 3d d9 3a a9 3d
       0.05494762 0.10950687 0.07459101 0.082631774
000270 6f 58 49 3c 6f a4 8e 3c cd b9 82 3d 52 ce 2a 3d
       0.012289151 0.017412392 0.06383095 0.04170067
000280 d6 21 81 3c a8 88 2d 3d 91 23 76 bc 3d d8 e7 bc
       0.015763205 0.042366654 -0.015023128 -0.028301353
000290 e1 62 23 bc 6f ef df 3c b3 d0 34 3d e9 a7 3b 3d
       -0.009972305 0.02733585 0.044144344 0.04581443
0002a0 e3 30 16 bd e5 4e 21 bd 8b ea 14 3d 6d 37 41 3d
       -0.036667716 -0.03938188 0.03635649 0.047172
0002b0 d3 f1 0f 3d d0 0c 88 bc 0e ff 22 bc fd de 10 3e
       0.03514273 -0.016607672 -0.009948505 0.14147563
0002c0 31 47 c8 3d b8 70 a4 3d db 92 69 3d 85 fe aa 3d
       0.09779204 0.08029312 0.057024818 0.08349327
0002d0 cb 03 26 3d 38 e3 0e 3c 4a a2 86 ba 55 98 39 bb
       0.04053096 0.008721165 -0.0010271755 -0.0028319557
0002e0 e8 57 43 3c 05 46 1a 3d 5c 6c 03 3d ec 9a c2 3c
       0.011922814 0.037664432 0.03208576 0.023755513
0002f0 13 62 e3 3b cd 99 b9 3c 4e 23 27 3c 0f cd 3d 3c
       0.0069391816 0.022656346 0.010201288 0.011584534
000300 98 60 71 ba d1 b9 1a bc 24 18 57 ba f1 f2 12 3d
       -0.0009207814 -0.009443716 -0.00082051964 0.03587622
000310 ae ae 8d 3c ab 0e c2 3a 93 52 44 bc ab 75 e1 bb
       0.017295208 0.0014805397 -0.011982578 -0.006880482
000320 df 1f 74 3c e7 a2 8b 3c 5e 12 02 bb 73 24 15 bc
       0.014900177 0.017045451 -0.0019847373 -0.009102928
000330 fc c6 cf 3c c0 75 0a 3d a6 f5 ce 3c 7a 20 9b 3b
       0.025363438 0.0338037 0.025263619 0.004734096
000340 7c e7 ab 3b 93 c5 fc 3c 29 69 0a 3c 1b 8a a6 3c
       0.005246101 0.03085593 0.008447924 0.020329526
000350 e0 dd 3c bc 1a 1c 36 bc 59 e0 99 3b 7c 8a 55 3c
       -0.0115275085 -0.011115098 0.004695934 0.0130335055
000360 5a bc 09 3d e7 28 bc 3c f7 fb 00 3b 81 6f 8f 3c
       0.03362689 0.022968723 0.0019681433 0.017509224
000370 f0 c1 16 3c cb b9 c7 3c 6b 47 3f 3c 87 91 0e 3d
       0.009201512 0.024380585 0.011674742 0.034806754
000380 2b 83 97 3c 56 82 77 3d 7f d2 43 3c 6c af 1b 3d
       0.018495163 0.060427032 0.011952042 0.038009092
000390 8e c2 98 3c 14 a3 eb 3c 93 16 84 3b f2 4c 84 bc
       0.018647458 0.028764285 0.0040310114 -0.016149972
0003a0 da 47 e0 3b 59 32 1d bc 8d 96 34 3c 13 93 38 bc
       0.006844503 -0.009594523 0.011022222 -0.011265534
0003b0 64 1b 58 bc 4f 39 a8 b9 c0 8d 99 bc a2 87 2c bc
       -0.013190124 -0.00032086155 -0.01874435 -0.010530384
0003c0 e9 69 38 3c 8e d4 1e 3c 1b 15 cc 3c de 7b 99 3c
       0.01125572 0.009694232 0.024912408 0.018735822
0003d0 43 43 5f 3c f6 23 93 3c 42 2f a6 3a 7d 6c 7c 3c
       0.013626876 0.017961483 0.0012678879 0.015406725
0003e0 ca 6f 41 3c 60 06 35 3c 99 11 0c 3e dc 78 a5 3d
       0.011806438 0.011048883 0.13678588 0.08079693
0003f0 55 34 89 3d af a6 b5 3d a1 db 3c 3d 27 15 ae 3d
       0.06699435 0.08869683 0.046107892 0.08500128

decoder.2.bias f4 [16]
000000 4c 4d 42 3d c8 82 a1 3c 3a 1d 42 3d 9a 73 20 ba
       0.047436997 0.019715682 0.047391154 -0.00061207416
000010 b9 3a f3 3b 89 12 15 3d 2d 0a c0 3c d5 8f b6 3b
       0.007422772 0.03639463 0.023442352 0.0055713453
000020 f2 59 6d 3c 07 df ca 3c 88 5c ef 3c 04 19 1c 3d
       0.014486777 0.02476455 0.029218927 0.038109794
000030 4e 4b 1a 3d ee a2 a6 3c 17 0a 9f 3c c6 07 9b 3c
       0.037669472 0.020341363 0.01941399 0.018924605

decoder.4.weight f4 [16, 3, 5, 5]
000000 0d 00 3d 3d f6 c0 87 3d e5 b4 82 bc b1 11 d8 3d
       0.046142627 0.06628601 -0.015955398 0.10550249
000010 f3 7f 98 3d a7 88 4e 3b 3c 35 10 3c 1a e9 7d bd
       0.074462794 0.0031514557 0.008801755 -0.06198988
000020 47 72 cb 3c 42 97 73 bd 13 6c 2b bd 7b 2f 34 3d
       0.024834765 -0.059470423 -0.041851114 0.043990593
000030 bd e7 01 3c 61 fb 8c 3d 5b 97 cc 3d a6 57 8d bd
       0.007928786 0.06883884 0.09989806 -0.06901483
000040 29 b3 a7 bd 06 70 fc 3c f3 89 74 3d c0 77 05 3d
       -0.08188469 0.030815136 0.05970187 0.032584906
000050 85 7f 1b bd ae 8d 76 bd 25 29 79 bd 24 12 38 3d
       -0.03796341 -0.06019371 -0.060830254 0.044939175
000060 a5 5e 1e bd fc 4e 70 3d bc 77 85 3d 69 64 00 bd
       -0.03866448 0.058669075 0.06516978 -0.03134576
000070 56 e2 7c 3d ec 8e 50 bd a4 a6 94 bd 0c 6d 8b 3d
       0.06173929 -0.05091755 -0.07258347 0.068079084
000080 95 7e 6f 3d a5 4d 5c 3b 16 a6 a2 bd 34 4e 16 3d
       0.058470327 0.0033615616 -0.07941835 0.036695674
000090 cb 53 d0 bb ad bc c8 bb 76 ea 93 3d 0d da 97 3d
       -0.006357645 -0.0061260075 0.07222454 0.07414637
0000a0 3b 9b 30 3d 61 54 a3 bd ed 0a ee bd 7e 57 ef bd
       0.04311679 -0.079750784 -0.11623178 -0.1168661
0000b0 8d 11 56 bc 73 ba 97 3d 28 df a2 3c a2 c8 59 3c
       -0.013065708 0.07408609 0.0198818 0.0132924635
0000c0 30 e2 94 bd c9 67 b1 3d 2c 43 8c 3c 9b 5a 83 bd
       -0.07269704 0.086623736 0.017121874 -0.06413766
0000d0 61 87 94 bd 6f 61 ba bc f8 cf 8f 3d 8a 41 e1 3d
       -0.07252384 -0.022751538 0.07022089 0.10998829
0000e0 ab 96 f8 3d 33 a0 5f 3d 0c fa ce bd 2b 5c b7 3d
       0.12138113 0.054596137 -0.101062864 0.089531265
0000f0 fb 87 c7 bd b7 11 af bd 7a b7 89 bd f5 98 4a bd
       -0.09742733 -0.08548301 -0.067244485 -0.049462277
000100 7e e4 5d bc 42 8f ab 3d 62 17 23 bc 5d d0 aa bd
       -0.013543246 0.08376934 -0.009954305 -0.083405234
000110 05 a7 ba bd 32 92 eb bd f4 a8 c5 3d 2f d0 3b bd
       -0.09113888 -0.11502494 0.09651366 -0.045852836
000120 ff d1 57 bd 4a 2e 7c 3d 3c 55 c9 bd e3 16 13 bd
       -0.052690502 0.061567582 -0.0983071 -0.0359105
000130 35 d8 d4 bd a2 6e 7c bd 4e 30 13 bd a2 af 27 bd
       -0.10392801 -0.061628945 -0.03593474 -0.04093898
000140 a0 d5 8d 3d 6d 6a e3 bb 4c 83 61 bd b7 39 c0 3d
       0.06925511 -0.006940177 -0.055056855 0.09386008
000150 cb d6 36 bd f1 2a 70 bc d3 07 7d bd 04 74 6c 3c
       -0.044638436 -0.0146586755 -0.06177504 0.014431957
000160 7c d4 38 3d e3 a3 61 3c af fe 23 3d e8 69 61 bd
       0.045124516 0.013771984 0.040037807 -0.05503264
000170 56 5d d5 3d fe ed f9 bc 1f 67 87 bd 2f 77 b7 bd
       0.10418193 -0.030508991 -0.06611466 -0.08958279
000180 6a 00 cf 3d 81 36 59 3d 29 89 a5 3d 28 fe 08 3d
       0.10107501 0.053030495 0.08082802 0.033445507
000190 bb d9 b0 bd 43 2e 64 3c 0e 37 0b be 7d 38 51 3b
       -0.08635279 0.013927045 -0.1359522 0.0031924539
0001a0 ce 27 91 3c e4 13 8b bd 43 29 29 bd 07 c0 24 bd
       0.017719176 -0.06790903 -0.041299116 -0.040222194
0001b0 68 0f 17 3d 6f f0 d0 bd f9 9c 22 3c 3c 22 c3 3c
       0.036879927 -0.10202109 0.0099251205 0.023820035
0001c0 08 fd 6a 3c bb cd f9 3d be 38 c0 bd bd 51 e6 bc
       0.014342554 0.12197443 -0.09385823 -0.028115148
0001d0 3e 36 e3 3d fb 35 ff 3c 01 5d 65 bd 1a 74 0a bd
       0.1109433 0.03115367 -0.0559969 -0.03380213
0001e0 2c f6 87 bd 76 de 02 3d a7 d7 95 3d 85 82 95 3c
       -0.066387504 0.031950437 0.07316523 0.018250713
0001f0 e1 fe 39 3c bc a8 2c 3c ab 9a 80 bd c7 24 2a bc
       0.011352272 0.010538276 -0.062795006 -0.010384745
000200 de 0c 48 bd 47 51 3e bd 7c b3 cb bd 02 fc c1 bd
       -0.048840396 -0.04646423 -0.09946343 -0.09471895
000210 a4 79 9a bd 0c ee 6f 3d dd 4f b4 bd b1 5c b5 bd
       -0.07542732 0.05857663 -0.08804295 -0.0885557
000220 ec f9 dc 3c 2c 7f 4d bc b1 c3 bc 3c f3 e0 9d bd
       0.02697464 -0.012542527 0.023042532 -0.07708921
000230 6e 53 e0 3b a1 a3 33 3d f3 df cd 3d c1 18 0e 3d
       0.006845883 0.04385722 0.100524805 0.034691576
000240 32 ae ac bd db 19 2a 3d 9e 9d e4 3d 9a d7 be 3c
       -0.084316626 0.041528564 0.111628756 0.023296166
000250 69 13 18 3d ac 59 04 bd 2c 79 28 3a b0 f4 67 3d
       0.037127886 -0.03231208 0.00064267474 0.056629837
000260 69 f3 7b bd 08 17 5b bd 1b b3 01 3d ea 48 fe bd
       -0.06151143 -0.05348876 0.03166495 -0.12416251
000270 ea 2e c8 bd 09 1b 0b 3d b4 3f 67 bd e8 4f 28 bd
       -0.09774573 0.03396133 -0.056457236 -0.04109183
000280 63 02 9f bd 51 f3 7f 3b 14 a3 dc bd 12 36 a5 bd
       -0.07764127 0.003905494 -0.10773292 -0.08066954
000290 30 84 5b 3d 77 27 7b bd 5e 09 d7 bd 6d 74 b0 3b
       0.05359286 -0.061316933 -0.104998335 0.005384973
0002a0 72 bf ad bd c1 14 9c bc b7 9b 27 3d 3e ee 31 3d
       -0.08483781 -0.019052865 0.040919986 0.043440096
0002b0 f4 fa b8 bd ad a6 99 bd 52 2b 8d 3d 20 a7 79 3d
       -0.090322405 -0.07502494 0.06893028 0.0609504
0002c0 9a 18 8e bc e6 3c 93 3d 46 82 48 3d d7 62 76 bc
       -0.017345715 0.0718935 0.048952363 -0.015038214
0002d0 9c dc 8e bd d7 b1 85 3b 16 47 2c bd c2 99 90 bd
       -0.06975672 0.004080038 -0.04205998 -0.07060577
0002e0 a9 c2 4f 3d 39 07 0b 3d d2 59 12 bd 04 15 83 3d
       0.05072275 0.033942435 -0.03573019 0.06400493
0002f0 02 5f aa bd 94 de 3e 3d e3 b4 99 bd fd 1a 45 3b
       -0.083189026 0.046598986 -0.075052045 0.00300759
000300 83 5a 50 3b 10 39 b1 bb 46 0e bb bc c2 54 0d 3d
       0.003179223 -0.0054084137 -0.022833955 0.03450466
000310 9f b6 36 3d a3 5f 81 bd 73 4d 13 bd d3 ac 4c 3c
       0.044607755 -0.063170694 -0.035962533 0.012492376
000320 47 15 3b bd be 67 16 3d 30 f2 c6 bd 9b 82 28 3d
       -0.04567459 0.03672003 -0.09714162 0.04114018
000330 f3 37 5d bd c3 0f c2 bd 53 2a d9 bd 8f 1c b9 bb
       -0.054008435 -0.094756626 -0.10603776 -0.0056491564
000340 ed 26 1f bd 26 f1 bb bd 3a 6e 59 bd db bc ef bd
       -0.038855482 -0.09176855 -0.053083636 -0.11705943
000350 1c 91 d7 3c 5f 34 d5 bc 41 2e 8b 3c 37 79 d2 bd
       0.02631431 -0.026025949 0.016989829 -0.10277026
000360 89 cb 1e bd cf de e3 bc 98 63 01 bd b2 b3 06 be
       -0.038768325 -0.027816204 -0.03158912 -0.13154486
000370 f1 89 dd bd 33 8a 82 3d 6a 7d 9a bd d8 8f 15 be
       -0.10817326 0.06374016 -0.07543452 -0.14605653
000380 ae 3c 17 bd b5 74 bc bd 6f c5 6d bd 75 ab 22 3d
       -0.036923103 -0.092019476 -0.058049615 0.039714295
000390 f7 a8 bf bb bc bb 27 3d a0 07 2d 3c 04 9a 3f bc
       -0.0058489996 0.04095052 0.0105609 -0.011694435
0003a0 b9 c9 82 3c 65 c6 0c bc 76 0b b9 bd ca 32 e6 3d
       0.01596533 -0.008592223 -0.09035389 0.11240156
0003b0 f4 18 04 3c 51 af 1d 3b 76 a5 ab bd 5a ba 2d 3d
       0.00806259 0.0024060796 -0.083811685 0.042414047
0003c0 3b 28 9e 3d c4 3b 21 bd 1b 12 8e bd 30 3e 9e bd
       0.07722517 -0.039363638 -0.06937047 -0.07726705
0003d0 7e d3 a9 bd 9a ed e5 3b bc fe 8e 3d 28 3b c5 bc
       -0.08292292 0.0070168497 0.069821805 -0.02407606
0003e0 2c 86 87 bd 8f c6 5e 3d 80 b5 29 3c c6 e5 9d bc
       -0.06617388 0.05438858 0.010358214 -0.019274604
0003f0 e2 11 66 3d 96 2a 09 3e d9 0d f4 3d db 4e c3 3c
       0.056169398 0.13395151 0.11916704 0.023841312

decoder.4.bias f4 [3]
000000 9a 94 1d bc 96 0f 64 bb 45 9c 2f 3d
       -0.009617949 -0.003479933 0.04287364
